models/emotion_net.pth (torch, 679877 bytes, 10 tensors)

conv1.weight f4 [6, 1, 5, 5]
0	0x3e567588	0.20943272
1	0xbe435da7	-0.19078694
2	0x3eb59de7	0.35472032
3	0x3ea0a0e3	0.31372747
4	0xbe93ece5	-0.28891674
5	0xbe6c7376	-0.2309092
6	0xbe315698	-0.17318189
7	0xbe695691	-0.22786929
8	0x3e7209d5	0.23636563
9	0xbe8f8b09	-0.28035763
10	0xbd6df7f9	-0.058097813
11	0xbebb4282	-0.3657418
12	0xbe84b58e	-0.25919765
13	0x3e95f78e	0.29290432
14	0x3e4bac1b	0.19889872
15	0x3e2e3193	0.17011099
16	0x3dc7253f	0.09723901
17	0x3de8e851	0.11372436
18	0x3e9fb6e4	0.31194222
19	0x3d50862c	0.050909206
20	0xbed58a50	-0.41707087
21	0xbe2bd087	-0.16778766
22	0x3ea86d92	0.32896096
23	0x3e0f4e8e	0.1399481
24	0x3e1431d2	0.1447213
25	0xbe5415b6	-0.20711407
26	0xbd89d8c0	-0.06730795
27	0xbe3aa8a4	-0.18228394
28	0x3d126e81	0.035749916
29	0xbd5dc30d	-0.054141093
30	0x3ebda16d	0.3703722
31	0x3ed2f7a8	0.41204572
32	0x3e98c7c5	0.29839912
33	0x3e8d9ef0	0.27660322
34	0x3e7a8bc9	0.24467386
35	0x3e9c8ac5	0.30574623
36	0x3e5d7786	0.21627626
37	0x3da71bee	0.08159624
38	0x3df783db	0.12085696
39	0xbd30aa21	-0.043130998
40	0xbf027262	-0.50955784
41	0xbf1f0533	-0.6211731
42	0xbedbd8da	-0.42938882
43	0xbdee8086	-0.11645608
44	0x396182ac	0.00021506351
45	0x3e0384f4	0.12843686
46	0xbd45db52	-0.048304863
47	0xbe917d3b	-0.28415856
48	0xbab0e85a	-0.001349698
49	0x3d463a91	0.048395697
50	0xbe15ece5	-0.1464115
51	0xbdcf5af9	-0.101247735
52	0xbe6f6e26	-0.23381862
53	0xbe13ed8a	-0.14446083
54	0xbe85f997	-0.26166984
55	0x3ea43956	0.32074994
56	0xbe410c2e	-0.18852302
57	0x3dc6fa6d	0.09715734
58	0xbe7de611	-0.24794795
59	0xbed3fe04	-0.41404736
60	0x3ece7e96	0.40330952
61	0x3e1c4f50	0.1526463
62	0x3e6d1bc1	0.23155119
63	0x3ead2ed1	0.3382478
64	0xbcfee935	-0.031117061
65	0xbea3c2f2	-0.3198467
66	0xbe096ebb	-0.13421147
67	0x3e1fa1c6	0.15589055
68	0x3da7d4ad	0.081948616
69	0x3d874467	0.066048436
70	0xbd9e7c7d	-0.07738588
71	0x3e98b976	0.29828995
72	0xbe120709	-0.14260496
73	0x3d1d8340	0.038455248
74	0x3df8bf79	0.121458955
75	0x3df71b5d	0.12065766
76	0x3cec4bac	0.028844677
77	0xbe22832c	-0.1587035
78	0xbe80772f	-0.2509093
79	0x3dfae83a	0.12251325
80	0x3daa8922	0.08326937
81	0x3e71c3b8	0.23609817
82	0xbe8eea33	-0.27913055
83	0xbebab9f7	-0.36470005
84	0xbd150423	-0.0363809
85	0x3e7a7a8b	0.24460809
86	0x3e7ef829	0.24899353
87	0xbee2fe79	-0.44334772
88	0xbe125fee	-0.14294407
89	0x3e356ac1	0.17716505
90	0x3ed9335a	0.4242199
91	0xbe4c6e6b	-0.19963996
92	0xbef8aabd	-0.48567763
93	0xbbf52ae7	-0.007481921
94	0x3e7cedc3	0.24700074
95	0x3e25a042	0.16174415
96	0x3d1505e2	0.036382563
97	0xbe650688	-0.22365773
98	0xbda62791	-0.081130154
99	0x3eb1ffc1	0.34765437
100	0x3de3d53d	0.11124656
101	0x3e8f9d4b	0.28049693
102	0x3c93578d	0.017986083
103	0x3e77fe60	0.2421813
104	0x3e9e30c0	0.30896568
105	0x3e3671f8	0.17816913
106	0x3e9f3aff	0.31099698
107	0x3dd1c2fa	0.10242267
108	0xbe438ac5	-0.19095905
109	0xbe0ca957	-0.13736473
110	0xbda7c842	-0.08192493
111	0x3e8ac2e7	0.27101824
112	0xbbe76a02	-0.0070621977
113	0xbebb8ce7	-0.36630937
114	0xbeafc78c	-0.3433193
115	0x3c2aa963	0.0104163615
116	0x3ca07daf	0.01959118
117	0xbe9f66e8	-0.311332
118	0x3de7cbd7	0.11318176
119	0xbcbf2079	-0.023330914
120	0xbde33038	-0.11093181
121	0xbdf59edd	-0.119931914
122	0x3c85fcd2	0.016355906
123	0x3da3b29b	0.07993051
124	0x3cf0424c	0.029328488
125	0x3ce204da	0.027590204
126	0x3df24da5	0.11831216
127	0x3e953c7d	0.2914771
128	0x3e882e58	0.26597857
129	0x3c11ebbe	0.008906303
130	0xbe32e095	-0.17468484
131	0xbe0ad52b	-0.1355788
132	0x3e7a0439	0.24415673
133	0xbe627fea	-0.22119108
134	0x3dce56ab	0.10075124
135	0x3e7d2d27	0.24724256
136	0x3dafbedd	0.08581326
137	0x3e3bc837	0.18338095
138	0xbe76eb14	-0.24113113
139	0xbe5bf276	-0.2147921
140	0x3e105ac3	0.14097123
141	0x3e033450	0.12812924
142	0xbe89ba10	-0.26899767
143	0xbef15d80	-0.47141647
144	0xbcf2a039	-0.029617416
145	0x3db017ae	0.085982665
146	0xbeacd206	-0.33753985
147	0xbea5a9f5	-0.3235623
148	0xbe26bc88	-0.16282856
149	0x3e8e2783	0.2776452

conv1.bias f4 [6]
0	0xbd04d5c1	-0.032430414
1	0x3c857ae4	0.01629395
2	0x3e0726c2	0.13198379
3	0xbe288383	-0.16456418
4	0xbd0caaa4	-0.034342423
5	0x3d7013bb	0.058612566

conv2.weight f4 [16, 6, 5, 5]
0	0xbe521362	-0.20515206
1	0xbe9f3257	-0.31093094
2	0xbd541514	-0.051777914
3	0xbe05775f	-0.13033818
4	0xbdf6727c	-0.12033555
5	0x3c938a0f	0.018010167
6	0x3ce7bd1d	0.028288418
7	0x3e0f7d6d	0.1401269
8	0x3dca51c5	0.098788776
9	0xbe301b3b	-0.17197888
10	0xbd068179	-0.03283832
11	0x3e330bc9	0.17484964
12	0x3db5db31	0.08879698
13	0xbdb5e8a6	-0.08882265
14	0xbe002ce5	-0.12517126
15	0x3ddb7c5a	0.107170776
16	0x3d93c7a2	0.07215811
17	0x3cc4fbea	0.024045903
18	0xbe99bbe9	-0.30026177
19	0xbe460e9a	-0.19341508
20	0x3c07b832	0.008283662
21	0xbe3b955e	-0.18318698
22	0xbc1df945	-0.00964195
23	0xbd036ac2	-0.032084234
24	0x3db03a6f	0.08604895
25	0xbd4fb8ac	-0.050713226
26	0x3e4d51ef	0.20050786
27	0x3e4a1bbf	0.19737147
28	0x3e16aa12	0.14713314
29	0x3d955a51	0.07292617
30	0xbcb7b1fe	-0.02242374
31	0x3dfd4e87	0.123684935
32	0x3dbaa3bc	0.09113261
33	0x3e1419b4	0.1446293
34	0x3e2742c2	0.1633406
35	0x3ddc9fef	0.107726924
36	0x3c4b3ed7	0.012405119
37	0xbe2c518c	-0.16827983
38	0xbd0b4e26	-0.034010075
39	0xbe1e24b9	-0.15443696
40	0xbda754f5	-0.08170501
41	0x3dfe90cc	0.124299616
42	0x3e41c27f	0.1892185
43	0x3dc4aebb	0.0960364
44	0x3e2ca5db	0.16860144
45	0xbe130287	-0.14356433
46	0xbd494634	-0.049139217
47	0xbdf7f6c3	-0.12107613
48	0x3d0157b1	0.03157777
49	0xbe7d234f	-0.247205
50	0xbdadf299	-0.084935375
51	0xbdd86b67	-0.1056736
52	0x3d8af363	0.067847036
53	0x3dc13ef6	0.09435837
54	0x3d7717a7	0.06032529
55	0x3d7e591d	0.062096704
56	0x3d8b0acd	0.067891695
57	0x3ddfb7f2	0.10923757
58	0x3d2a3908	0.041558295
59	0xbd3b95e5	-0.045797247
60	0x3e002edc	0.12517875
61	0x3e32dbe7	0.17466699
62	0x3e78d3ad	0.24299498
63	0x3ea28996	0.31745595
64	0x3e4020b2	0.18762472
65	0xba596b47	-0.00082938786
66	0xbe8042fd	-0.25051108
67	0xbe26d4fc	-0.16292185
68	0xbd4e6c11	-0.05039603
69	0x3d40dfd0	0.047088444
70	0x3e128ca8	0.14311469
71	0x3d9bddef	0.0761069
72	0xbe1f0021	-0.15527393
73	0xbc2779c9	-0.010221907
74	0x3d6519ed	0.055932928
75	0xbba2c9fb	-0.0049679256
76	0xbe722912	-0.2364848
77	0xbebe89be	-0.37214464
78	0xbdc63553	-0.096781395
79	0x3d255d49	0.040372167
80	0x3d3e666e	0.046484403
81	0xbe875b21	-0.26436713
82	0xbd500d0e	-0.0507937
83	0xbe6f1b80	-0.23350334
84	0xbd3cca9f	-0.046091672
85	0xbe3b69fa	-0.18302146
86	0xbe853cd8	-0.26022983
87	0x3c9375e5	0.018000552
88	0xbdb6944c	-0.08915004
89	0xbd44b4c9	-0.048023973
90	0xbe5ac2e5	-0.21363409
91	0xbe616a9d	-0.22013326
92	0xbed4f7f7	-0.41595432
93	0xbe8b13d6	-0.2716357
94	0x3d28e368	0.041232497
95	0x3d320a25	0.043466706
96	0x3c85a5ed	0.016314471
97	0xbdc9bf87	-0.09850984
98	0x3d875a60	0.066090345
99	0xbe66dae9	-0.22544445
100	0xbdb5eb54	-0.08882776
101	0x3d3be9c6	0.04587724
102	0x3d0767db	0.03305803
103	0xbc07c694	-0.008287091
104	0xbdfd38d4	-0.12364355
105	0x3e2a2743	0.1661654
106	0xbca29278	-0.019845232
107	0x3b8b3250	0.004247941
108	0xbe3307e2	-0.17483476
109	0xbd69f054	-0.05711396
110	0xbcc6d068	-0.024269298
111	0xbee2ebf8	-0.44320655
112	0xbeff336a	-0.49843913
113	0xbe7bca21	-0.24588825
114	0xbe2516d8	-0.16121995
115	0x3e455cf5	0.19273742
116	0xbe800478	-0.2500341
117	0x3dc26388	0.0949164
118	0x3e3dd220	0.18537188
119	0x3cbdf48f	0.023187904
120	0xbd2fe297	-0.042940702
121	0x3d69b407	0.057056453
122	0x3dc04435	0.093880095
123	0x3e1f76bf	0.15572642
124	0x3d065641	0.032797102
125	0x3c71c1a3	0.014755639
126	0x3e1b4a5f	0.15165089
127	0x3c9216a3	0.01783306
128	0xbdda28ec	-0.106523365
129	0xbdba0145	-0.090822734
130	0x3e12ba01	0.14328767
131	0xbc6a3189	-0.014294037
132	0x3bc90e79	0.0061357585
133	0xbe682a9f	-0.22672509
134	0xbd814df4	-0.063136965
135	0x3d91838a	0.07105167
136	0xbe28bf7a	-0.16479293
137	0xbebc2f56	-0.36754864
138	0xbec6570d	-0.3873829
139	0xbda2c033	-0.07946815
140	0xbd51e5d4	-0.05124457
141	0x3ce9cd9d	0.028540427
142	0xbdd99069	-0.10623247
143	0x3d363e29	0.044492874
144	0xbd8d1acb	-0.06889876
145	0xbe141571	-0.14461304
146	0xbaf39134	-0.0018582703
147	0x3e006e21	0.12542011
148	0x3e1bed1f	0.15227173
149	0xbc3a3fe1	-0.011367769
150	0x3d3c7bb5	0.046016414
151	0xbe2f45ac	-0.17116421
152	0x3d15c4ea	0.036564745
153	0x3bc6d28c	0.0060675796
154	0x3dcdd6f1	0.100507624
155	0xbd973783	-0.07383635
156	0xbbf4dfd2	-0.0074729705
157	0x3d058a2d	0.032602478
158	0xbe0b0e2e	-0.13579628
159	0x3d870b58	0.065939605
160	0x3e355c08	0.17710888
161	0x3cf98aff	0.030461786
162	0x3d8e6461	0.069527395
163	0x3ce99e26	0.028517794
164	0x3d0f8809	0.035041843
165	0x3e6b3735	0.22970279
166	0x3e107bfd	0.14109798
167	0x3d910e59	0.07082815
168	0xbcf9540f	-0.03043559
169	0xbd0ee7ff	-0.034889217
170	0x3e1d945e	0.15388629
171	0x3d398eb5	0.04530211
172	0xbdcb894f	-0.09938299
173	0x3dbcd23d	0.09219787
174	0xbd3df377	-0.046374764
175	0xbea95d79	-0.33079126
176	0xbe8d8839	-0.27642992
177	0xbe1bb541	-0.15205862
178	0xbe04755f	-0.12935399
179	0x3d7102e4	0.058840647
180	0xbe1d7921	-0.15378238
181	0xbe8ff215	-0.2811438
182	0xbe8be107	-0.2732012
183	0xbe572875	-0.21011527
184	0x3d13f370	0.036120832
185	0xbd9ba253	-0.0759932
186	0xbe5f1769	-0.21786274
187	0xbe9000c7	-0.28125593
188	0xbeb48c49	-0.3526328
189	0xbe818219	-0.2529457
190	0xbe2e41bd	-0.17017265
191	0xbecb9097	-0.3975875
192	0xbe9799b8	-0.29609466
193	0xbd459a40	-0.048242807
194	0xbe16a4ee	-0.14711353
195	0xbe0b997f	-0.13632773
196	0xbf00b067	-0.5026917
197	0xbe94be7f	-0.29051587
198	0x3dd6fd05	0.104974784
199	0x3dfdac7d	0.12386415
200	0xbdba6163	-0.09100606
201	0xbe150a78	-0.14554775
202	0xbcfc0fa2	-0.030769173
203	0x3e0ec826	0.13943538
204	0x3d7d63de	0.06186282
205	0xbe039aa1	-0.12851955
206	0xbcb35749	-0.021892207
207	0x3b9f6d6c	0.004865339
208	0x3d2a1db1	0.041532222
209	0xbdc2e72d	-0.095167495
210	0x3da62b66	0.08113746
211	0xbd862987	-0.065508895
212	0xbd27a977	-0.0409331
213	0x3e3ddc0a	0.1854097
214	0x3d5df44f	0.05418807
215	0xbd0216d0	-0.031760037
216	0x3d881cec	0.066461414
217	0xbd01791c	-0.03160964
218	0x3e0649fb	0.13114159
219	0x3e31b182	0.1735287
220	0x3dbb28b4	0.09138623
221	0x3c9019e4	0.01759047
222	0xbe3a781f	-0.18209885
223	0xbd26b893	-0.040703367
224	0x3e9f9378	0.31167197
225	0xbe855383	-0.26040277
226	0x3e859fc8	0.26098466
227	0xbdacb6b4	-0.08433285
228	0x3c2c6893	0.010522979
229	0x3e0680a8	0.13135016
230	0xbe3e7476	-0.18599114
231	0x3e7482fd	0.23878093
232	0xbd90bf3f	-0.07067727
233	0x3e03d205	0.12873085
234	0x3c9f38c7	0.019436253
235	0xbe0adc56	-0.13560614
236	0x3e78afc2	0.24285796
237	0x3ce7fd7e	0.028319117
238	0x3da17289	0.07883174
239	0x3e017a59	0.12644328
240	0x3dc2c4d0	0.09510195
241	0x3e38ecdf	0.18059109
242	0x3cc70973	0.024296498
243	0xbda52a43	-0.080647014
244	0x3d09da36	0.033655368
245	0x3e198415	0.14991792
246	0x3d764664	0.060125723
247	0x3cf2d0ae	0.029640522
248	0xbeac7b4a	-0.33687812
249	0xbed3efd8	-0.41393924
250	0x3d4f73d5	0.050647575
251	0xbd22791c	-0.03966628
252	0x3d0df0b7	0.03465339
253	0xbdfdd736	-0.12394564
254	0xbddd4f07	-0.10806089
255	0xbdaacd51	-0.08339942

conv2.bias f4 [16]
0	0xbd1478ae	-0.0362479
1	0x3e3da783	0.18520932
2	0x3e8d9d08	0.27658868
3	0x3dee40e9	0.116334744
4	0x3d34cd0e	0.044140868
5	0xbd74a11f	-0.05972397
6	0xbd074f6a	-0.03303472
7	0xbd7a4635	-0.06110211
8	0x3cb04972	0.021519396
9	0x3d2056e1	0.039145354
10	0xbdc897b0	-0.09794557
11	0x3e2b93f8	0.16755664
12	0xbc19704e	-0.009365154
13	0xbdc88bad	-0.09792266
14	0xbe5617a2	-0.20907453
15	0x3d90d9ad	0.07072768

fc1.weight f4 [120, 1296]
0	0x3e467698	0.19381177
1	0x3e60e389	0.21961798
2	0x3d6c9e2a	0.057768025
3	0xbd16f41e	-0.036853902
4	0x3e42cf27	0.19024335
5	0xbd81d2ce	-0.06339036
6	0xbdb6e5e0	-0.08930564
7	0x3deb97c2	0.11503555
8	0x3d988aa8	0.074483216
9	0xbd463935	-0.0483944
10	0x3ce3b6a0	0.027797043
11	0x3d736380	0.059421062
12	0x3de6bc4e	0.11266385
13	0x3df67758	0.12034482
14	0xbcc600e1	-0.024170341
15	0xbe219604	-0.15779883
16	0x3bf25c73	0.0073962747
17	0xbd0b3c36	-0.03399297
18	0x3e59e80e	0.21279928
19	0x3dc33968	0.09532434
20	0xbe19f87b	-0.15036194
21	0xbe3dc3a8	-0.18531668
22	0xbd89cdb9	-0.067286916
23	0xbc01007e	-0.0078736525
24	0xbe2691fb	-0.16266625
25	0xbdd63b40	-0.1046052
26	0x3d715c09	0.058925662
27	0xbd699add	-0.057032455
28	0xbdc05a9f	-0.093922846
29	0x3dda3ae1	0.106557615
30	0xbdd81507	-0.10550886
31	0x3b7d3a27	0.0038639398
32	0xbd53281e	-0.05155193
33	0xbda02b7f	-0.07820796
34	0x3c77a919	0.015116
35	0xbd7094c8	-0.05873564
36	0xbd980d26	-0.07424383
37	0x3cbf6493	0.023363387
38	0x3dfc4992	0.1231872
39	0x3e0aeb02	0.13566211
40	0xbe1469c6	-0.14493474
41	0xbc1b4b40	-0.00947839
42	0x3dcdcb7d	0.10048578
43	0x3d91dafd	0.07121847
44	0x3e2634de	0.16231105
45	0x3eadcb4e	0.33944172
46	0x3e92fb91	0.28707555
47	0x3e9d4419	0.30716017
48	0x3c9608cc	0.018314742
49	0x3c2e2004	0.01062775
50	0xbda9a785	-0.08283905
51	0xbdcdd2e3	-0.10049989
52	0x3e8daa17	0.2766883
53	0xbe0287de	-0.12747142
54	0xbc5a03b1	-0.013306544
55	0x3e6ca23d	0.23108764
56	0x3d80229e	0.06256603
57	0xbcd431b9	-0.025902616
58	0x3c2f32af	0.010693236
59	0x3c407a8d	0.011747968
60	0xbd6e1914	-0.058129385
61	0xbd37e2d9	-0.044894073
62	0x3e41fe01	0.18944551
63	0xbe204f51	-0.15655257
64	0x3c9f440c	0.019441627
65	0xbd93278e	-0.07185279
66	0xbe01d2ab	-0.1267802
67	0x3c83c80b	0.016086599
68	0x3e8977ed	0.2684931
69	0x39c36670	0.0003726962
70	0x3d93a322	0.072088495
71	0x3ea1cb97	0.3160064
72	0xbc214357	-0.009842715
73	0xbdcb7be0	-0.09935737
74	0x3d927de6	0.071529195
75	0x3b80d3f6	0.0039315177
76	0x3dadae63	0.08480527
77	0xbcc26c4c	-0.02373328
78	0xbd8be5ef	-0.06830966
79	0x3df5baf4	0.11998549
80	0x3e0fb381	0.14033319
81	0xbd742cc4	-0.059613004
82	0x3ca90d50	0.02063623
83	0x3d969a52	0.07353653
84	0x3bac8c39	0.0052657393
85	0xbc15cdc4	-0.009143297
86	0x3c7df094	0.015499253
87	0x3b446f92	0.0029973728
88	0x3e3c7abc	0.18406194
89	0xbc408bcf	-0.011752083
90	0xbda5317c	-0.08066079
91	0xbe02232d	-0.12708731
92	0x3e09e3da	0.13465825
93	0xbca6fb1d	-0.020383412
94	0x3d1ef13e	0.038804285
95	0x3d56e5fe	0.05246543
96	0x3e3a1b57	0.18174492
97	0xbe106f4a	-0.14104953
98	0x3c1a9576	0.009435048
99	0xbc1a4cfa	-0.009417767
100	0x3db107ec	0.08644089
101	0xbd71539e	-0.058917634
102	0xbe96972b	-0.29412207
103	0xbdde77ac	-0.10862669
104	0xbc0d4ce7	-0.008624292
105	0x3d8c7391	0.0685798
106	0x3d59d22a	0.053178944
107	0xbd886db3	-0.066615485
108	0x3e1ad6d2	0.1512101
109	0xbc1c7408	-0.009549148
110	0x3dee129a	0.11624642
111	0x3da0e1f7	0.078555994
112	0x3cbc8d17	0.023016496
113	0xbdc08512	-0.09400381
114	0xbd45aaa4	-0.04825844
115	0x3ce384ae	0.027773228
116	0x3c8063c0	0.015672565
117	0xbc3eb8ab	-0.011640708
118	0xbe092187	-0.13391696
119	0x3de84477	0.11341184
120	0x3d364f00	0.044508934
121	0x3ba80d10	0.0051285103
122	0xbdf77207	-0.12082296
123	0x3d907d21	0.070551164
124	0x3e0de395	0.13856347
125	0x3d47f201	0.048814777
126	0xbd472d7e	-0.04862737
127	0xbe258de4	-0.16167408
128	0xbe33f3ba	-0.17573443
129	0xbe42fdfa	-0.19042197
130	0x3ddebc33	0.1087574
131	0x3d1c0d28	0.038098484
132	0xbd982c3b	-0.07430311
133	0x3e2e6a3f	0.17032717
134	0x3dc13374	0.09433642
135	0xbddac540	-0.10682154
136	0xbb488ab1	-0.0030600245
137	0xbe897cf3	-0.2685314
138	0xbde127a1	-0.10993887
139	0x3d477bde	0.048702113
140	0x3d9217f2	0.071334735
141	0x3e609899	0.21933211
142	0x3c8f6930	0.017506212
143	0xbd82f973	-0.06395235
144	0x3db6c09a	0.089234546
145	0xbd3b7fef	-0.045776304
146	0x3de223eb	0.11042007
147	0x3e138067	0.1440445
148	0x3c902fb3	0.01760087
149	0xbdcd969e	-0.100384936
150	0xbe084f1a	-0.13311425
151	0xbe0bc701	-0.13650133
152	0x3c6597fd	0.014013288
153	0xbde28369	-0.11060221
154	0xbe71bc42	-0.23606971
155	0x3e4e1438	0.201249
156	0xbd83a58c	-0.0642806
157	0x3d2cad03	0.042157184
158	0xbd8babee	-0.06819902
159	0xbcae7fae	-0.021301117
160	0xbc986a4d	-0.018605376
161	0xbd621e81	-0.055204872
162	0xbe0e6cb8	-0.1390866
163	0xbd3caac0	-0.046061277
164	0x3e443ed6	0.19164595
165	0x3d095af2	0.033533998
166	0x3d778329	0.06042782
167	0x3e5680f6	0.20947632
168	0x3c3473f9	0.011013978
169	0x3caa00cf	0.020752339
170	0xbd88cf05	-0.06680111
171	0xbd995fbf	-0.07488965
172	0xbbf3e54a	-0.007443105
173	0xbe06ee8f	-0.1317694
174	0x3d38454f	0.044987973
175	0xbddc58f6	-0.107591555
176	0x3ea4994e	0.32148212
177	0x3c86735e	0.016412433
178	0xbdb6c961	-0.08925129
179	0xbde00220	-0.10937905
180	0x3d7a9e54	0.06118615
181	0xbe6fe89f	-0.23428582
182	0xbe739305	-0.23786552
183	0xbe3d81c2	-0.1850653
184	0xbe646468	-0.22303927
185	0xbdcf3c3c	-0.10118911
186	0xbdd40e8f	-0.10354339
187	0xbd87cbd2	-0.066306725
188	0x3dd5a63f	0.104320996
189	0x3d479d73	0.04873414
190	0x3cccc0b5	0.024994234
191	0x3e0fbd2f	0.14037012
192	0xbdb28f71	-0.087187655
193	0x3d526a41	0.051370863
194	0x3d3f9a4f	0.04677802
195	0xbd80a138	-0.0628075
196	0xbdaed44a	-0.08536585
197	0x3e92e07b	0.2868689
198	0xbdbb7445	-0.09153036
199	0x3dda789e	0.10667537
200	0xbcb0ebd8	-0.021596834
201	0xbba65c43	-0.0050769164
202	0xbe420e3c	-0.18950742
203	0xbc70ca06	-0.014696604
204	0xbda8f820	-0.08250451
205	0x3b87d597	0.004145335
206	0x3ddeba0a	0.10875328
207	0xbe841e97	-0.25804588
208	0xbe3a090f	-0.18167518
209	0xbddcda15	-0.10783783
210	0xbd820d8f	-0.06350242
211	0xbdb6899f	-0.08912968
212	0x3db60923	0.088884614
213	0x3d1a7518	0.037709326
214	0xbd606683	-0.054785263
215	0x3e7ffb7a	0.24998274
216	0xbd3bc8bf	-0.045845743
217	0x3d47ffca	0.048827924
218	0xbe2bc2d8	-0.16773546
219	0xbd71f5e8	-0.059072405
220	0xbdf0a467	-0.11750107
221	0xbe7df5fa	-0.24800864
222	0x3c16d785	0.009206657
223	0xbcc1b72b	-0.023646912
224	0x3dae3a75	0.085072435
225	0xbe3101bc	-0.17285818
226	0xbd8181c1	-0.06323577
227	0x3e5cedc9	0.21575083
228	0x3e70258c	0.23451823
229	0xbb34dfb9	-0.002759917
230	0x3cfa65a9	0.030566053
231	0x3db6df00	0.089292526
232	0xbd459fd1	-0.048248116
233	0x3da57104	0.08078197
234	0xbb8273a4	-0.0039810706
235	0x3d5bf6bf	0.053702112
236	0xbdd1b717	-0.1024
237	0xbe20b75f	-0.1569495
238	0x3dab7f2d	0.08373866
239	0xbd1ce70f	-0.038306292
240	0x3d669997	0.05629882
241	0xbe8128cb	-0.25226435
242	0x3b4fd092	0.003171001
243	0xbc079ec9	-0.008277603
244	0x3d04d235	0.03242703
245	0x3e6ea649	0.2330562
246	0x3e0a1030	0.13482738
247	0xbd290b3b	-0.041270476
248	0xbddf266b	-0.108959995
249	0xbe0d8533	-0.13820343
250	0xbd8272cd	-0.06369553
251	0x3e8c5721	0.27410224
252	0xbd4d6e11	-0.050153796
253	0x3d9fa59f	0.077952616
254	0x3def0917	0.116716556
255	0xbd849721	-0.06474138

fc1.bias f4 [120]
0	0x3d7f3752	0.062308617
1	0xbbba4635	-0.005684639
2	0xbca1126e	-0.019662108
3	0xbcaccdff	-0.02109432
4	0x3d352abe	0.044230215
5	0xbd08a3c6	-0.03335931
6	0xbd4710e9	-0.04860011
7	0x3d6ebe23	0.058286797
8	0xbd05f4da	-0.03270421
9	0xbd1d0115	-0.03833111
10	0x3c275c67	0.0102149015
11	0xbbc889b6	-0.006119932
12	0xbc9c92db	-0.019112995
13	0xbc61f87a	-0.013792152
14	0x3c1b1a92	0.009466784
15	0x3d598109	0.053101573
16	0x3ddc032f	0.10742795
17	0x3ce2d308	0.027688518
18	0x3af4f2ef	0.0018688123
19	0xbd0157c2	-0.031577833
20	0x3d1a11d0	0.037614644
21	0xbc9b924e	-0.018990662
22	0x3e0910b5	0.1338528
23	0x3c696a46	0.014246529
24	0xbbabdae6	-0.0052446006
25	0xbc1a8ef8	-0.0094335005
26	0x3d91810a	0.071046904
27	0x3dfa6e78	0.122281015
28	0xbd15dd8b	-0.036588233
29	0x3c94e244	0.018174298
30	0x3d53b4f2	0.051686235
31	0x3d919c0d	0.071098424
32	0xbce78ab5	-0.028264383
33	0x3e1df877	0.15426813
34	0x3bcd499a	0.0062648775
35	0xbca40e95	-0.020026485
36	0x3a63eff8	0.0008695121
37	0x3b78ac1c	0.0037944382
38	0x3c8a4cf0	0.01688239
39	0x3c39298d	0.01130141
40	0x3dcd6ab4	0.10030118
41	0xbb7ae5c5	-0.0038283926
42	0x3d874d7d	0.066065766
43	0xbc8cb0ee	-0.01717421
44	0xbd103939	-0.03521082
45	0x3d486b96	0.048930727
46	0x3b842d41	0.004033715
47	0x3ac72460	0.0015193336
48	0xbce96434	-0.028490163
49	0x3acde449	0.0015708293
50	0xbb832d36	-0.0040031923
51	0xbd3c50f1	-0.04597563
52	0xbc7ce01d	-0.015434292
53	0x3c6dcb03	0.014513734
54	0xbda8beea	-0.08239539
55	0x3b8f0fca	0.004365896
56	0xbcd4f958	-0.025997803
57	0xbc014c43	-0.007891717
58	0xbd2f431b	-0.042788606
59	0xbbe9eb97	-0.00713868
60	0xbcca208c	-0.024673723
61	0x3c50f2ef	0.012753232
62	0xbcc82c17	-0.024435086
63	0xbcc2f6d6	-0.023799341
64	0xbd099f36	-0.0335991
65	0xbc704178	-0.0146640465
66	0xbbbd15bb	-0.0057704127
67	0x3d8d8360	0.069098234
68	0x3b853077	0.0040646154
69	0xbcc254a8	-0.023722008
70	0xba3e30a3	-0.0007255172
71	0xbcba25b0	-0.022723049
72	0xbcc11f58	-0.023574516
73	0x3ca9f86e	0.020748343
74	0xbc550323	-0.013001236
75	0x3d7abb8f	0.061214026
76	0x3dca87ad	0.09889159
77	0xbbe7996a	-0.007067849
78	0x39cd01bd	0.00039101942
79	0x3d965c61	0.07341839
80	0xbdbb6a53	-0.09151139
81	0x3d187f26	0.037230633
82	0xbc411505	-0.011784797
83	0x3cf616f5	0.030040244
84	0xbcc5ff22	-0.024169508
85	0x3d89af5d	0.06722901
86	0x3dc91838	0.098190725
87	0xbd41c1e1	-0.047304038
88	0xbc2e4272	-0.010635959
89	0x3c97f5d2	0.018549833
90	0xbd47574b	-0.048667233
91	0x3d960638	0.07325405
92	0xbd5b51d0	-0.05354482
93	0xbaed00ec	-0.001808194
94	0xbd151aa1	-0.03640235
95	0xbb99170f	-0.0046719383
96	0x3cd060b1	0.025436731
97	0xbc871e2c	-0.01649388
98	0xbd9b536b	-0.0758427
99	0xbcc0e7a3	-0.023547953
100	0x3c00ae3a	0.007854039
101	0xbc0b6e1b	-0.008510138
102	0xbcaddee3	-0.021224445
103	0x3d8f0867	0.069840245
104	0xbcecf91d	-0.02892738
105	0x3b66654d	0.0035155595
106	0xbd04602a	-0.03231827
107	0xbbea4680	-0.0071495175
108	0x3e05ccd8	0.13066423
109	0x3d95383b	0.07286116
110	0x3bd87a2b	0.0066063604
111	0x3e066bb8	0.13127029
112	0x3d0ebb9c	0.034846887
113	0x3cdcf458	0.02697198
114	0xbd2a3af3	-0.041560125
115	0xbcac28b6	-0.021015506
116	0xbae0b0f3	-0.0017142579
117	0x3d429e7b	0.04751442
118	0xbd36b4ce	-0.044606023
119	0xbb077bd5	-0.0020673175

fc2.weight f4 [84, 120]
0	0xbe6cb92a	-0.2311751
1	0x3d4de75d	0.050269473
2	0x3e90f58c	0.28312337
3	0xbd849da2	-0.064753786
4	0xbe74e94a	-0.23917118
5	0xbcf95280	-0.030434847
6	0xbcdd7c83	-0.02703691
7	0xbd898f4f	-0.06716787
8	0x3cb05d36	0.021528821
9	0xbd39c2b7	-0.04535171
10	0x3d87bf7b	0.06628319
11	0xbc11c6fd	-0.00889754
12	0x3c305bdd	0.010764089
13	0xbe5399bf	-0.20664118
14	0xbdbe4613	-0.09290709
15	0x3ea694e6	0.32535475
16	0x3d9e0687	0.07716089
17	0x3e4350e3	0.19073825
18	0x3caebde3	0.02133078
19	0xbd536b35	-0.051615912
20	0xbb8613b2	-0.0040917033
21	0x3dffe021	0.12493921
22	0x3c364ec7	0.01112718
23	0xbdbec95b	-0.09315749
24	0xbd83407b	-0.06408783
25	0x3d23ec23	0.04002012
26	0xbe237e6a	-0.15966192
27	0x3d3e120d	0.046403933
28	0xbd183886	-0.03716328
29	0x3d649ec2	0.055815466
30	0x3e21e682	0.15810588
31	0x3e7f4858	0.2492994
32	0x3d8937f5	0.06700126
33	0xbc5b72ae	-0.013394041
34	0x3d722590	0.059117854
35	0x3c58ba85	0.0132280635
36	0x3d4256a3	0.047445904
37	0xbcf28197	-0.029602809
38	0xbd9ce2d3	-0.07660451
39	0x3c85d797	0.016338153
40	0x3e43fa34	0.19138414
41	0xbd89dd51	-0.06731666
42	0x3e09ab79	0.13444318
43	0x3db14110	0.08654988
44	0x3d96a1f9	0.073551126
45	0xbe2999cd	-0.16562577
46	0x3d08d764	0.033408538
47	0xbcf26b05	-0.029592047
48	0x3d9c072c	0.076185554
49	0xbd6a7e95	-0.057249624
50	0xbb5aa64d	-0.0033363283
51	0xbd973e08	-0.073848784
52	0xbdc6bddf	-0.09704184
53	0xbd1eba88	-0.03875211
54	0x3dbef61e	0.09324287
55	0x3d88692f	0.06660687
56	0xbe00cc09	-0.12577833
57	0x3ea754d3	0.32681903
58	0xbd1fc1c3	-0.039003145
59	0x3d75595a	0.059899665
60	0x3d346335	0.044039924
61	0x3c64833b	0.013947303
62	0x3c964ef2	0.018348191
63	0x3d9b7134	0.07589951
64	0xbb5604ee	-0.0032656747
65	0xbda0e940	-0.07856989
66	0x3d7f99d2	0.062402554
67	0x3ca510a4	0.020149536
68	0xbea2ca73	-0.31795081
69	0x3d6b82d9	0.057497833
70	0xbd91b16c	-0.07113919
71	0x3d5f5f85	0.054534454
72	0x3d460c74	0.04835172
73	0xbd610bef	-0.05494302
74	0xbd6eecf6	-0.058331452
75	0x3ea46d9e	0.3211488
76	0x3d3e862a	0.046514668
77	0xbc9e72d6	-0.019341867
78	0xbdaec010	-0.08532727
79	0xbe0eef73	-0.1395853
80	0xbdc41b29	-0.09575493
81	0xbccd9b8a	-0.02509858
82	0xbcb99e19	-0.022658395
83	0xbd771f10	-0.060332358
84	0xbd907774	-0.07054034
85	0x3ce22d03	0.027609354
86	0xbe125bfe	-0.14292905
87	0x3c98cbe5	0.018651912
88	0xbe970018	-0.2949226
89	0xbcb85775	-0.02250264
90	0x3e65b16c	0.22430962
91	0xbdab3e1e	-0.08361457
92	0xbd9b3b47	-0.07579666
93	0xbdaf85d5	-0.08570448
94	0x3d804a8e	0.0626422
95	0x3d940376	0.072272226
96	0xbc9c13b5	-0.019052366
97	0xbd89aba6	-0.067221925
98	0x3ecdd3e0	0.4020071
99	0x3d8adbca	0.06780203
100	0x3cb1fd1d	0.02172714
101	0x3d457fe9	0.048217688
102	0x3d8119f5	0.06303779
103	0xbdcf0c53	-0.101097725
104	0x3d8a491d	0.067522265
105	0x3c9a65d2	0.01884738
106	0x3d6a8f36	0.057265483
107	0x3d26ae8b	0.0406938
108	0x3de43baf	0.11144196
109	0x3e1e6667	0.15468751
110	0x3da4dc73	0.0804986
111	0x3d318fee	0.043350153
112	0xbc2c0ff4	-0.01050185
113	0x3cde64f2	0.027147744
114	0x3d4261c8	0.047456533
115	0x3c7944be	0.015214143
116	0x3dce2aa1	0.100667246
117	0xbe4157dc	-0.18881172
118	0x3b8914b0	0.0041833743
119	0x3bcf802f	0.0063324193
120	0xbdab719f	-0.08371281
121	0xbd85e0a4	-0.065369874
122	0x3e0a6ec0	0.1351881
123	0xbca07737	-0.019588096
124	0x3db22d35	0.08700029
125	0xbdd8f1cf	-0.10592996
126	0x3d6b531d	0.05745231
127	0x3e068d81	0.13139917
128	0xbd8596b5	-0.06522886
129	0xbbc062a1	-0.0058711325
130	0xbd87c058	-0.066284835
131	0xbce470dc	-0.027885847
132	0xbd457744	-0.048209444
133	0x3d288a4f	0.041147526
134	0x3ea08dd4	0.31358206
135	0xb9c3e322	-0.00037362525
136	0x3e354c4a	0.17704883
137	0xbe2fba89	-0.17161001
138	0x3cd0588c	0.025432847
139	0xbd949ad9	-0.07256097
140	0x3d602ece	0.054732136
141	0x3ea03f5c	0.3129834
142	0xbd680bb4	-0.056651786
143	0xbcb748fd	-0.02237367
144	0xbcfc9fe4	-0.03083796
145	0xbda64d9a	-0.0812027
146	0x3eba83a0	0.36428547
147	0x3e6b33ca	0.22968975
148	0x3d399b1d	0.045313943
149	0xbc38ec9f	-0.011286884
150	0xbdc589ee	-0.096454486
151	0x3e03b4c2	0.12861922
152	0xbd9a604f	-0.07537901
153	0xbdae2743	-0.08503582
154	0x3cec33d0	0.0288333
155	0x3d2a8c09	0.041637454
156	0x3d1db1e5	0.03849973
157	0xbc8c871a	-0.017154265
158	0x3d2b26e5	0.04178514
159	0x3d4dfcd4	0.050289944
160	0xbd8042ba	-0.06262727
161	0x3d82c347	0.063849024
162	0xbd5830f6	-0.052781068
163	0xbc70b040	-0.014690459
164	0xbd7fbe4b	-0.062437337
165	0x3eb1bdfc	0.3471526
166	0x3d842225	0.06451825
167	0xbc352561	-0.011056275
168	0x3c7f7a2c	0.015593093
169	0xbd7d4f04	-0.061842933
170	0x3c244d04	0.010028128
171	0xbcc1a961	-0.023640336
172	0x3d2a813e	0.04162716
173	0x3d8d0ae9	0.068868466
174	0x3e4ce1e0	0.2000804
175	0xbd2c5b79	-0.042079423
176	0xbd87dbbf	-0.0663371
177	0xbe288007	-0.16455089
178	0x3c2f74e3	0.01070902
179	0x3d6747b4	0.056464866
180	0xbd818b8e	-0.06325446
181	0xbd8003d3	-0.062507294
182	0xbb700418	-0.0036623534
183	0x3da9ea44	0.08296636
184	0xbd966c14	-0.07344833
185	0xbccb5b4d	-0.024823809
186	0x3cf760fd	0.030197615
187	0xbd513913	-0.05107982
188	0xbdf36462	-0.11884381
189	0xbd56cc1d	-0.05244075
190	0xbc82d341	-0.015969874
191	0xbd52e352	-0.05148632
192	0x3d1c46c7	0.038153436
193	0x3be70f3d	0.007051377
194	0x3cea7cc7	0.028623952
195	0x3d97a5ed	0.07404695
196	0x3e53f720	0.2069974
197	0xbcf1394a	-0.029446263
198	0xbd65833f	-0.05603337
199	0x3dde751e	0.10862182
200	0xbd77987a	-0.060448147
201	0xbe29504a	-0.16534534
202	0xbdb0bfe6	-0.08630352
203	0x3d9186df	0.07105803
204	0xbd7bfa9d	-0.0615183
205	0xbe1ff9ec	-0.15622681
206	0xbd399e95	-0.04531725
207	0xbcb2b9c8	-0.021817103
208	0x3e01c943	0.12674432
209	0xbd7a1aec	-0.06106083
210	0x3ee76c06	0.45199603
211	0x3e4073b9	0.18794145
212	0x3d6f8262	0.058473952
213	0xbe16805b	-0.14697401
214	0xbd8eb676	-0.069683954
215	0xbc13b6ae	-0.009015722
216	0x3d9ba6ee	0.07600199
217	0xbda41e24	-0.08013561
218	0xbe8b46ef	-0.27202556
219	0xbc99159a	-0.018687058
220	0xbd7195f3	-0.058980893
221	0x3d2f0e0d	0.04273801
222	0xbc6ba4e9	-0.014382579
223	0x3bfc384d	0.0076971413
224	0x3d69b3d8	0.057056278
225	0xbd4d62fe	-0.050143234
226	0x3d8d2131	0.068910964
227	0xbd66fab4	-0.056391433
228	0xbdca4679	-0.09876723
229	0x3db15572	0.086588755
230	0xbd2c3139	-0.04203913
231	0xbeaec260	-0.3413267
232	0xbd3f0b77	-0.046641793
233	0xbd9ca2ca	-0.07648237
234	0xbcbd3266	-0.02309532
235	0x3c951f75	0.018203476
236	0x3e83adb9	0.25718477
237	0xbedeef1c	-0.435418
238	0xbd49577c	-0.049155697
239	0x3e0aeb66	0.1356636
240	0xbe8471c7	-0.25868055
241	0x3cec66fa	0.028857697
242	0x3e9809d0	0.29694986
243	0x3d838b8c	0.06423101
244	0x3e04751c	0.12935299
245	0xbcfaab9b	-0.030599406
246	0x3cd15475	0.025552968
247	0xbd804030	-0.06262243
248	0x3da261c2	0.07928802
249	0x3c4b7f73	0.012420523
250	0x3d7bab60	0.061442733
251	0xbbf9d850	-0.0076246634
252	0x3c0a350a	0.008435497
253	0x3e66a4b5	0.22523768
254	0x3ea89703	0.32927713
255	0xbdfa35cf	-0.122172944

fc2.bias f4 [84]
0	0x3e042616	0.12905154
1	0x3df713a6	0.120642945
2	0x3be29582	0.0069147954
3	0xbdaed6c7	-0.08537059
4	0x3e51b25e	0.20478198
5	0xbd4ca4fd	-0.049962033
6	0xbde764f9	-0.11298556
7	0xbd5f174b	-0.054465573
8	0x3c0b54e4	0.008504126
9	0x3dd618d6	0.10453956
10	0x3e16ac94	0.14714271
11	0x3e125bdc	0.14292854
12	0x3e1a094f	0.15042613
13	0x3e543fb7	0.2072743
14	0x3d1c5388	0.0381656
15	0x3e3f8133	0.1870163
16	0x3da5b229	0.08090622
17	0x3ce03d22	0.0273729
18	0x3df79b99	0.12090225
19	0x3e4babcb	0.19889753
20	0x3d07d458	0.03316149
21	0xbd6aebb9	-0.05735371
22	0x3d158b70	0.03650993
23	0xbe1cf295	-0.15326913
24	0x3e658b01	0.22416307
25	0x3da53183	0.08066084
26	0x3e17cb43	0.14823632
27	0xbd24bc34	-0.040218547
28	0x3be7a76a	0.007069518
29	0x3e263921	0.1623273
30	0xbd40f099	-0.04710445
31	0x3e816c29	0.25277832
32	0x3dc045b2	0.09388293
33	0x3d70cfaf	0.058791813
34	0xbcc51110	-0.024055988
35	0xbdfb8a78	-0.1228227
36	0xbe27766b	-0.16353767
37	0x3e02b42b	0.12764041
38	0xbb30e333	-0.002699089
39	0xbdc42857	-0.09578007
40	0x3d5fb157	0.054612484
41	0x39febf96	0.00048589398
42	0x3cec2593	0.02882651
43	0x3b81490b	0.003945475
44	0x3da505e3	0.080577634
45	0x3e0dbb74	0.13841039
46	0x3d9d5e57	0.076840095
47	0xbe4f76c5	-0.2026015
48	0xbde8f7d7	-0.11375397
49	0x3e7e2f72	0.24822786
50	0x3caff564	0.021479316
51	0x3dffc0cc	0.12487945
52	0x3db7d71d	0.089765765
53	0x3de53527	0.11191779
54	0x3d7e8da7	0.06214681
55	0x3d028e2f	0.031873878
56	0xbd63d7e1	-0.0556258
57	0xbc325b8e	-0.010886086
58	0x3d42d18a	0.047563113
59	0xbde7f8b3	-0.113267325
60	0xbe0c66df	-0.13711117
61	0x3dc25129	0.09488136
62	0x3d834503	0.06409647
63	0xbd1f5e5a	-0.03890834
64	0x3d9fffad	0.07812438
65	0x3d1344f2	0.035954423
66	0xbdfb2541	-0.12262965
67	0x3d9f76e6	0.0778635
68	0x3e3438da	0.17599812
69	0x3dea51cd	0.114413835
70	0x3d711885	0.058861274
71	0xbdb14d0b	-0.08657273
72	0x3d758ddf	0.059949752
73	0x3ea4ef62	0.32213885
74	0x3e8c52a1	0.2740679
75	0xbdd7f6b0	-0.10545099
76	0xbd720bf5	-0.059093434
77	0x3da0bbdd	0.07848332
78	0xbe027220	-0.12738848
79	0x3db7a3f3	0.08966818
80	0xbbf35c78	-0.0074267946
81	0xbccaebd1	-0.02477065
82	0x3d8b5050	0.06802428
83	0xbd09f8ac	-0.033684418

fc3.weight f4 [7, 84]
0	0x3e34baac	0.17649335
1	0xbe3a0485	-0.18165787
2	0xbe503cf7	-0.20335756
3	0xbd39604e	-0.04525786
4	0x3e028969	0.1274773
5	0xbda5590f	-0.08073627
6	0x3e2e236d	0.17005701
7	0x3c9f4775	0.019443253
8	0xbf132cd3	-0.5749027
9	0x3dc69b4c	0.09697589
10	0xbe5ddb94	-0.21665794
11	0xbef7e99d	-0.4842042
12	0x3e3357bd	0.17513938
13	0xbdbe6519	-0.092966266
14	0xbe8c576c	-0.27410448
15	0xbe83fef8	-0.25780463
16	0xbebc9f12	-0.3684011
17	0xbe0040a1	-0.12524654
18	0xbebe1bed	-0.3713068
19	0xbe029f54	-0.12756091
20	0x3e93a7b2	0.2883888
21	0x3e317ade	0.17332026
22	0x3ebb8290	0.3662305
23	0x3efbece8	0.49204183
24	0xbe1ba629	-0.15200104
25	0x3dfcbbb1	0.12340487
26	0x3d13ccab	0.03608386
27	0xbdda1978	-0.10649389
28	0xbd8f4e73	-0.06997385
29	0xbe39b87f	-0.18136786
30	0xbd8ee041	-0.06976367
31	0xbe285b9a	-0.16441193
32	0xbbba007f	-0.0056763287
33	0x3c402509	0.01172758
34	0x3e52fc65	0.20604093
35	0x3d93b7ff	0.07212829
36	0xbe85cd14	-0.26133025
37	0x3e67e745	0.22646816
38	0xbeaec5bc	-0.34135234
39	0xbda857a8	-0.08219844
40	0xbeb53d96	-0.3539855
41	0xbd56d3c8	-0.052448064
42	0x3ad64de9	0.0016350123
43	0x3e3f9c94	0.18712074
44	0xbc7da80d	-0.015481961
45	0xbcad9155	-0.021187464
46	0x39236e6a	0.00015586024
47	0x3eed73bc	0.4637736
48	0x3e689660	0.22713614
49	0xbe6d9191	-0.2320006
50	0xbcf32c05	-0.029684076
51	0x3e4374e8	0.19087565
52	0xbe418b95	-0.18900903
53	0x3d7ebd46	0.062192224
54	0x3d5fd816	0.054649435
55	0xbdb3b896	-0.08775441
56	0x3e39e3ea	0.18153349
57	0xbe987bd3	-0.2978197
58	0x3e5b3a59	0.21408977
59	0xbcc6ac40	-0.024252057
60	0xbd83f769	-0.06443674
61	0xbe7c2eaa	-0.24627176
62	0x3efb4cf4	0.49082148
63	0xbe3139b2	-0.17307165
64	0x3e953ad2	0.2914644
65	0x3e8b27c1	0.27178767
66	0x3cda4038	0.02664195
67	0xbafc5120	-0.0019250251
68	0xbe885d12	-0.26633507
69	0x3e0a4d46	0.1350604
70	0x3dcabc33	0.098991774
71	0xbea3c427	-0.3198559
72	0xbc57f194	-0.013180155
73	0xbf242b03	-0.6412813
74	0xbed5613e	-0.41675752
75	0x3cb4b64a	0.022059578
76	0x3d47ab39	0.048747275
77	0x3e0b8011	0.13623072
78	0x3ed79515	0.42105928
79	0x3e2794a4	0.16365296
80	0x3a38bedb	0.00070474826
81	0x3cb85490	0.02250126
82	0xbddc3ef4	-0.10754195
83	0xbe97183e	-0.29510683
84	0xbe170656	-0.1474851
85	0xbef0b125	-0.4701015
86	0xbc53bf4a	-0.012924025
87	0xbdc26700	-0.09492302
88	0xbe383485	-0.17988785
89	0x3cc42420	0.023943007
90	0xbe38590c	-0.18002719
91	0xbf136aec	-0.57585025
92	0xbd65f0fb	-0.05613802
93	0xbe84603c	-0.2585467
94	0x3e64f26e	0.22358105
95	0x3eaf8ece	0.3428864
96	0x3f014024	0.50488496
97	0x3e886f85	0.26647583
98	0x3e847aac	0.2587484
99	0x3e73b715	0.23800309
100	0xbdcde24f	-0.100529306
101	0x3e86515d	0.2623395
102	0xbef6482d	-0.4810194
103	0x3f1c5a4a	0.6107527
104	0x3e64811d	0.22314878
105	0xbe8ad825	-0.2711803
106	0xbebe214c	-0.37134778
107	0xbe0bd488	-0.13655293
108	0x3e71424f	0.23560451
109	0x3e00f239	0.125924
110	0xbda651c7	-0.081210665
111	0xbf19a648	-0.6001935
112	0xbec66a7b	-0.38753113
113	0xbef8c429	-0.48587158
114	0x3d500a90	0.050791323
115	0x3e7d601f	0.24743699
116	0x3e0c154e	0.13680002
117	0x3ecd184d	0.40057603
118	0xbeb302d9	-0.3496311
119	0xbdad3fa1	-0.08459402
120	0xbe846de0	-0.25865078
121	0x3f093aa3	0.536051
122	0xbec0fb42	-0.37691694
123	0xbbed9bbf	-0.0072512324
124	0xbebbe91e	-0.36701292
125	0x3d3784e0	0.044804454
126	0x3d9f9c70	0.0779351
127	0xbe3ffd5e	-0.18748996
128	0x3de706cb	0.112805925
129	0xbbbde9c0	-0.0057956874
130	0xbf501aa1	-0.8129063
131	0xbe95e288	-0.29274392
132	0xbc48d80c	-0.012258541
133	0xbe9b1e90	-0.30296755
134	0xbefc53e0	-0.49282742
135	0x3f3434e5	0.7039321
136	0xbe9aee65	-0.30260006
137	0xbe9bb118	-0.3040855
138	0xbeae92f5	-0.34096494
139	0xbf1c4446	-0.61041677
140	0xbd0a0a43	-0.033701193
141	0xbee935e0	-0.45548916
142	0xbe2cfad8	-0.16892564
143	0x3d89ef7e	0.06735133
144	0xbd547931	-0.05187339
145	0x3e4180c8	0.18896782
146	0x3d7e8bcb	0.062145036
147	0xbe929b4d	-0.2863411
148	0x3dbf8044	0.093506366
149	0x3ee0b87d	0.43890753
150	0xbf409371	-0.7522498
151	0xbed641e3	-0.41847143
152	0x3efb5d23	0.49094495
153	0x3ea16215	0.31520143
154	0x3d5f6813	0.054542612
155	0x3ec539e0	0.38520718
156	0xbef70838	-0.48248458
157	0x3e2833b9	0.1642598
158	0x3e9de5ee	0.30839485
159	0x3d0b9ad9	0.03408322
160	0x3e460e5c	0.19341415
161	0xbee768fd	-0.45197287
162	0xbec48768	-0.38384557
163	0x3e44295d	0.19156404
164	0x3d96345b	0.07334205
165	0xbdfd02c8	-0.12354046
166	0x3ed02f5e	0.40661138
167	0xbef1eaa0	-0.47249317
168	0x3d35f3bc	0.044421896
169	0xbe16abef	-0.14714025
170	0x3e4456b3	0.19173698
171	0xbc80f032	-0.015739534
172	0xbe48728f	-0.1957495
173	0xbd36f7cd	-0.044669915
174	0x3e016b38	0.12638557
175	0x3c1751fc	0.009235855
176	0xbef52f0d	-0.4788746
177	0xbe696ee3	-0.22796206
178	0xbf01e741	-0.5074349
179	0x3ec11e61	0.3771849
180	0xbd5fde34	-0.05465527
181	0x3e2ffe65	0.17186888
182	0xbd28db6c	-0.041224882
183	0xbea08656	-0.3135249
184	0xbe289bf8	-0.16465747
185	0xbf29987b	-0.6624829
186	0x3e880580	0.26566696
187	0xbd61ac29	-0.055095825
188	0xbde58ca4	-0.11208466
189	0xbe4d2860	-0.20034933
190	0x3e1740b8	0.14770782
191	0xbcf88c68	-0.030340388
192	0xbc6aa087	-0.014320499
193	0x3e7bf951	0.24606825
194	0xbed4ee83	-0.4158822
195	0x3e6a64a5	0.22889955
196	0x3e186a3f	0.1488428
197	0x3e89df11	0.26928
198	0xbf0526ed	-0.5201252
199	0x3ee37f5d	0.44433108
200	0xbe410a1b	-0.18851511
201	0xbe41584c	-0.18881339
202	0xbe36d999	-0.17856444
203	0xbeeeda88	-0.466511
204	0xbe12f3a8	-0.1435076
205	0x3e5033f5	0.2033232
206	0x3e97b82c	0.296327
207	0xbce7a635	-0.028277496
208	0xbe190a6e	-0.14945385
209	0xbecf9060	-0.40539837
210	0x3e83d142	0.2574559
211	0xbed3860f	-0.41313216
212	0xbd1e6e6b	-0.03867952
213	0xbe3198b9	-0.17343415
214	0xbcb1313b	-0.02162992
215	0xbdd75930	-0.10515058
216	0x3e3a4f0e	0.1819422
217	0xbc916adc	-0.01775115
218	0xbc8eacc8	-0.017416373
219	0xbd93b271	-0.07211769
220	0xbbbd7d7f	-0.0057827826
221	0x3e63cd27	0.22246228
222	0xbe85d413	-0.26138362
223	0x3e4e0751	0.20119978
224	0xbd6437f2	-0.055717416
225	0xbd6c08b6	-0.057625495
226	0x3e4f7138	0.20258033
227	0x3c0afd13	0.008483189
228	0xbd124dd6	-0.03571876
229	0xbed02ffe	-0.40661615
230	0xbf3c7366	-0.73613584
231	0xbd42fbf0	-0.047603548
232	0xbf0ad44e	-0.542302
233	0x3e448ab7	0.1919354
234	0x3e33e786	0.17568788
235	0xbd605576	-0.054769002
236	0xbe05587f	-0.1302204
237	0x3eac380a	0.33636504
238	0x3dc28c3c	0.09499404
239	0x3ecd51d6	0.40101498
240	0x3df7aae4	0.12093142
241	0xbe0e9f37	-0.13927923
242	0xbc11092b	-0.0088522835
243	0x3c1f8415	0.009736081
244	0xbec955bc	-0.39323223
245	0x3dc8f6af	0.09812676
246	0xbe47132a	-0.19440904
247	0xbecf776c	-0.405208
248	0xbc690555	-0.014222463
249	0xbdd06639	-0.101757474
250	0xbf0c79fa	-0.5487362
251	0xbba3c8ef	-0.0049983184
252	0xbf0c3b6a	-0.5477816
253	0x3dce9da3	0.100886606
254	0x3dc6c1c3	0.09704926
255	0x3d068008	0.032836944

fc3.bias f4 [7]
0	0xbe209274	-0.15680867
1	0x3e838b7a	0.2569235
2	0xbb22815f	-0.002479635
3	0xbc03b08c	-0.0080376975
4	0xbd3079b9	-0.043084834
5	0x3e4fc253	0.20288973
6	0x37837780	1.5672063e-05
