models/emotion_net.pth (torch, 679877 bytes, 10 tensors)

conv1.weight f4 [6, 1, 5, 5]
0	0x3e7a892a	0.24466386
1	0x3f1689ba	0.58803904
2	0x3f710888	0.9415364
3	0x3f470d81	0.7775498
4	0x3eb52efa	0.35387403
5	0xbeaa39a2	-0.33247095
6	0xbea5dd54	-0.32395422
7	0x3c5ca696	0.013467452
8	0x3e1bf853	0.15231447
9	0x3e89ee08	0.26939416
10	0xbf2dd411	-0.6790171
11	0xbfb6ee53	-1.4291481
12	0xc00187eb	-2.0239208
13	0xbfdc169a	-1.7194397
14	0xbee82de4	-0.45347512
15	0x3eba29b7	0.3635995
16	0x3f46eb2e	0.77702606
17	0x3f232253	0.6372425
18	0xbe82df6a	-0.25561076
19	0xbe9630f2	-0.29334217
20	0xbdbaaaa2	-0.09114577
21	0x3e94806b	0.29004225
22	0x3f5797cc	0.84216
23	0x3f5ae44f	0.8550462
24	0x3ea84533	0.32865295
25	0x3c20fe32	0.00982623
26	0xbec5ca7c	-0.38631046
27	0xbe0f23fd	-0.13978572
28	0x3f30fc3d	0.69134885
29	0xbd2f0963	-0.04273356
30	0x3ec164f1	0.37772325
31	0xbfb03d81	-1.376877
32	0xbf35f81d	-0.71081716
33	0x3f9ebb45	1.24009
34	0x3f5551e4	0.8332808
35	0x3f94fecd	1.1640259
36	0xbfcbf48d	-1.5934006
37	0xbfb14e8b	-1.3852094
38	0x3e2450b0	0.16046405
39	0x3f8b1945	1.0867087
40	0x3f866511	1.0499593
41	0xbebfcb03	-0.37459573
42	0xbfa7f421	-1.3121377
43	0xbf0e904b	-0.55688924
44	0x3f503fdf	0.8134746
45	0x3f17b63e	0.59262455
46	0x3eafdfcb	0.34350428
47	0xbf1d6122	-0.6147634
48	0xbe35c43e	-0.17750642
49	0x3daf1722	0.08549334
50	0xbf51809c	-0.8183687
51	0xbf01ac83	-0.50653857
52	0xbd9f84cd	-0.077890016
53	0x3ef57771	0.4794269
54	0x3e9dad37	0.30796215
55	0x3d6d3e8d	0.05792098
56	0x3f0a96eb	0.5413653
57	0x3f9666d8	1.1750135
58	0x3f3262f7	0.6968226
59	0xbdfe384e	-0.12413083
60	0x3ef9d7ef	0.48797557
61	0x3f6b382f	0.91882604
62	0x3fa2f1cb	1.2730039
63	0xbdf26781	-0.11836148
64	0xbf8f9644	-1.1217732
65	0x3f01f74a	0.5076796
66	0x3f39a547	0.7251782
67	0x3e25aaa4	0.16178375
68	0xbfb6ce64	-1.4281735
69	0xbf84cba3	-1.0374645
70	0x3e8c5399	0.2740753
71	0xbd683f2c	-0.05670087
72	0xbf2b0df2	-0.66818154
73	0xbf6392c5	-0.8889583
74	0x3ef45b5a	0.47725946
75	0x3bd2a38d	0.006428188
76	0x3d1220b6	0.035675727
77	0x3efd138a	0.4942897
78	0x3f0ac7bd	0.54211026
79	0x3e9830f6	0.29724854
80	0x3c7ba8f6	0.015360108
81	0x3f1004fa	0.56257594
82	0x3f19996e	0.5999974
83	0x3ea5db13	0.32393703
84	0xbd03db85	-0.032191772
85	0x3e97365b	0.29533657
86	0x3e337b1c	0.17527431
87	0xbeac96ec	-0.33708894
88	0xbe59c3d1	-0.21266104
89	0x3e055d2e	0.13023826
90	0x3e9ffd8a	0.31248122
91	0xbe0a5e12	-0.13512447
92	0xbedce227	-0.4314129
93	0xbeb4815e	-0.3525495
94	0x3e5754b2	0.21028402
95	0xbea0505a	-0.31311303
96	0xbea77edb	-0.3271397
97	0xbf468e93	-0.775613
98	0xbf8abc7a	-1.0838768
99	0xbf84fdda	-1.0389969
100	0x3d225562	0.03963221
101	0xbe80d2d2	-0.25160843
102	0xbf535464	-0.82550645
103	0xbf79db2b	-0.9760005
104	0x3e2c5ddb	0.16832678
105	0x3f1dcff0	0.6164541
106	0x3ea63592	0.32462746
107	0xbab41254	-0.0013738372
108	0xbf485310	-0.78251743
109	0xbf298a7f	-0.66226953
110	0x3f2710a3	0.6525976
111	0x3f6150e6	0.88014066
112	0x3e990b72	0.29891545
113	0xbeac94f9	-0.33707407
114	0xbebcb625	-0.36857715
115	0x3f557397	0.833795
116	0x3f6a97c0	0.916378
117	0x3eae72b5	0.3407189
118	0xbdb0b097	-0.08627432
119	0x3ec39c04	0.38204968
120	0x3e12d036	0.14337239
121	0xbbd5fed6	-0.006530623
122	0x3c0b27ad	0.008493346
123	0x3d87bcf6	0.06627838
124	0xbec7fd6c	-0.39060533
125	0x3f481e8d	0.78171617
126	0x3f172642	0.5904275
127	0xbf17f9b8	-0.59365416
128	0xbf48ff71	-0.7851477
129	0xbe9220f9	-0.2854078
130	0x3ecb798f	0.3974118
131	0xbf159308	-0.58427477
132	0xbfc36c37	-1.52674
133	0xbf08a8f5	-0.5338281
134	0x3e8c32c0	0.2738247
135	0xbeb41621	-0.35173133
136	0xbf92c317	-1.1465787
137	0xbea79e74	-0.32738078
138	0x3f097b99	0.5370422
139	0x3e9124a6	0.28348273
140	0xbdfeea23	-0.12447002
141	0xbed749c1	-0.42048457
142	0x3e6323bb	0.22181599
143	0x3f078195	0.529321
144	0x3f15517c	0.5832746
145	0x3e63d280	0.22248268
146	0x3da992ed	0.08279977
147	0x3f714e4f	0.94260114
148	0x3e28959c	0.16463321
149	0x3f0dc0ad	0.55372125

conv1.bias f4 [6]
0	0xbe8fe003	-0.28100595
1	0xbeb42575	-0.35184827
2	0xbe5c7b51	-0.21531416
3	0xbe4092a1	-0.18805934
4	0xbe7b7a68	-0.24558413
5	0xbca9296e	-0.020649638

conv2.weight f4 [16, 6, 5, 5]
0	0x3eb3cabc	0.35115612
1	0x3ed1d0a5	0.40979496
2	0x3df353ae	0.11881195
3	0x3e790a99	0.24320449
4	0x3cc6e2a3	0.02427799
5	0x3df56d6c	0.11983761
6	0xbf101355	-0.562795
7	0xbe8bd330	-0.2730956
8	0xbec613cc	-0.3868698
9	0xbeadf12f	-0.3397307
10	0xbf12ddfd	-0.5736998
11	0xbec58933	-0.38581237
12	0xbf0b8dd1	-0.5451327
13	0xbf1c9202	-0.6116029
14	0xbebce315	-0.36892
15	0xbd976970	-0.073931575
16	0xbe1bb532	-0.1520584
17	0xbefabf16	-0.48973912
18	0xbda939e8	-0.08262998
19	0xbd99df82	-0.07513334
20	0xbe5b05b6	-0.21388897
21	0x3ea8bc4f	0.32956168
22	0x3ec954da	0.3932255
23	0x3e18ef29	0.14934982
24	0xbe5782ff	-0.21046065
25	0xbeb4fe25	-0.35350147
26	0xbeb9fbe5	-0.36324993
27	0xbdcf6c92	-0.1012813
28	0x3e2b1ada	0.16709462
29	0x3db0e7b4	0.08637944
30	0x3c649885	0.013952379
31	0xbe8be11f	-0.2732019
32	0x3e292079	0.16516294
33	0xbcdb7844	-0.026790746
34	0xbe85e0e0	-0.26148129
35	0x3d5f4bc7	0.054515626
36	0xbe56b1f7	-0.20966326
37	0x3ef7944c	0.4835533
38	0xbe1baf27	-0.15203534
39	0xbd718898	-0.058968157
40	0x3e3f91b7	0.1870793
41	0xbdb2afd1	-0.087249406
42	0x3e276b32	0.16349486
43	0xbe61f087	-0.2206441
44	0x3e950030	0.29101706
45	0xbd6de1f6	-0.05807682
46	0xbe15b2cb	-0.14618985
47	0x3e9caf43	0.30602464
48	0x3c877634	0.016535856
49	0x3d926814	0.071487576
50	0x3eab0ec4	0.33409703
51	0xbe677904	-0.22604758
52	0xbed8addc	-0.42320144
53	0xbea83920	-0.32856083
54	0xbdc1a0ad	-0.094544746
55	0xbee4605e	-0.44604772
56	0xbd2cf8e2	-0.04222954
57	0xbe33941b	-0.17536967
58	0xbdcc8764	-0.09986761
59	0x3e8dbb2f	0.27681872
60	0x3dd8c915	0.10585228
61	0xbe0e993a	-0.13925639
62	0xbed53784	-0.41643918
63	0xbdd652d8	-0.1046502
64	0x3e32dd25	0.17467172
65	0xbd808ba1	-0.06276632
66	0x3d6de057	0.058075275
67	0xbe9da365	-0.30788723
68	0x3c8f64a5	0.017504046
69	0x3e10b8de	0.14133021
70	0xbe6b17fe	-0.22958371
71	0xbda0d317	-0.07852762
72	0x3c13102b	0.008976023
73	0xbec7c58c	-0.39017904
74	0x3d3d7470	0.04625362
75	0x3d38bd5f	0.045102473
76	0xbeb67fea	-0.35644466
77	0xbeb0d6b6	-0.3453881
78	0xbeb9127b	-0.36146912
79	0xbe8b26bf	-0.27177998
80	0xbefbfec7	-0.49217817
81	0xbebda120	-0.3703699
82	0xbf0504f0	-0.5196066
83	0xbe5861d3	-0.21131067
84	0xbe2802e4	-0.16407353
85	0xbde28053	-0.11059632
86	0xbe68fa27	-0.22751676
87	0xbe5f5c90	-0.21812654
88	0x3e80df75	0.25170484
89	0x3ee4f1db	0.4471577
90	0xbdfcf0c5	-0.12350611
91	0x3e0388e4	0.12845188
92	0x3e9fb4a4	0.31192505
93	0x3cd46dae	0.025931206
94	0x3e1b87e0	0.15188551
95	0xba3daad6	-0.00072352344
96	0x3dd10402	0.102058426
97	0x3e0cdbdc	0.13755745
98	0x3db7818d	0.08960257
99	0xbe21ab01	-0.15787889
100	0xbf045a49	-0.51700264
101	0xbe6b8cff	-0.23003004
102	0xbea89a6b	-0.32930312
103	0xbe3249ca	-0.17410961
104	0xbd80ec40	-0.06295061
105	0x3dd4c069	0.10388262
106	0x3ee92390	0.45534945
107	0xbe9fdd5b	-0.31223568
108	0xbea5ba43	-0.3236867
109	0x3ddc692b	0.10762247
110	0x3c5c2fa2	0.013439091
111	0x3d4b7962	0.049676307
112	0xbe971e6c	-0.29515398
113	0xbec468ef	-0.38361308
114	0xbe0353af	-0.12824892
115	0xbe370474	-0.17872792
116	0x3d7aaa0e	0.061197333
117	0xbe34a90d	-0.17642613
118	0xbeb0a2a9	-0.344991
119	0xbe672aca	-0.22574916
120	0x3e630d86	0.22173128
121	0x3f0d30dc	0.5515268
122	0x3d4a7b9d	0.049434293
123	0xbe239588	-0.1597501
124	0x3d2136ce	0.039358906
125	0xbe4e24ad	-0.20131178
126	0x3e7ad11f	0.24493836
127	0x3f2e33ea	0.68047965
128	0x3f2eba09	0.6825262
129	0x3de5c5a5	0.11219338
130	0x3f406a94	0.75162625
131	0x3e401281	0.18757059
132	0xbc004a63	-0.007830235
133	0x3e12c421	0.1433263
134	0xbe987b4e	-0.29781574
135	0xbee9fbce	-0.45699924
136	0xbee1b520	-0.440835
137	0xbe3d308f	-0.18475555
138	0xbed54cdb	-0.416602
139	0xbe4cd623	-0.20003562
140	0xbe0cbe14	-0.13744384
141	0xbe292d0c	-0.1652109
142	0xbe84ce36	-0.25938576
143	0xbeceaeee	-0.40367836
144	0xbe6535f4	-0.22383863
145	0xbdb58145	-0.08862547
146	0xbe9d79a8	-0.3075688
147	0x3e0f31b1	0.139838
148	0x3e14d068	0.14532626
149	0x3c15eb3c	0.0091503225
150	0xbe75e742	-0.24013999
151	0xbccac113	-0.024750268
152	0xbe77beef	-0.24193929
153	0xbe97ff83	-0.29687127
154	0xbebebacc	-0.3725189
155	0x3e2c00c5	0.16797169
156	0xbe33e732	-0.17568663
157	0xbee548ba	-0.44782048
158	0xbef2dae5	-0.47432628
159	0xbebe867b	-0.37211975
160	0x3ee3b756	0.44475812
161	0x3e88103a	0.2657488
162	0xbea0437d	-0.3130149
163	0xbf287106	-0.6579746
164	0xbf1401a2	-0.5781499
165	0x3cf40774	0.02978871
166	0xbdaac9c0	-0.08339262
167	0x3e550212	0.20801571
168	0xbd612dbb	-0.054975253
169	0xbef5af56	-0.47985333
170	0xbd9af0f8	-0.075654924
171	0xbe93e4f1	-0.28885606
172	0xbe307413	-0.17231779
173	0x3db7f8db	0.08983012
174	0x3e8c3428	0.27383542
175	0xbee524f4	-0.44754755
176	0xbeb9d701	-0.36296847
177	0xbe1791fa	-0.1480178
178	0xbe489a59	-0.19590129
179	0x3e17dc88	0.1483022
180	0x3ea1f7c5	0.31634346
181	0xbeb1d205	-0.34730545
182	0xbe0f8b4d	-0.14017983
183	0xbe92e0e4	-0.28687203
184	0x3c53f488	0.012936719
185	0x3e583d79	0.211172
186	0x3e26927e	0.1626682
187	0x3e4b974e	0.19881937
188	0x3d493525	0.04912295
189	0x3ea1eea7	0.3162739
190	0xbe47cec9	-0.19512476
191	0x3ea99bc7	0.3312666
192	0x3de8037b	0.11328789
193	0x3e27a700	0.16372299
194	0xbe39ddac	-0.18150967
195	0x3de88b35	0.11354677
196	0xbe2d05a7	-0.16896687
197	0x3d81f945	0.063463725
198	0xbe28da8a	-0.16489616
199	0xbcbc90c7	-0.023018254
200	0xbe8efa38	-0.27925277
201	0xbd72565e	-0.059164397
202	0xbd9c4d5b	-0.07631942
203	0x3ebc13b7	0.3673379
204	0x3e84e0fe	0.25952905
205	0xbe54c0b9	-0.20776643
206	0xbe4cae39	-0.19988336
207	0xbe7546a3	-0.23952727
208	0x3e91297f	0.28351972
209	0x3ed12a24	0.40852463
210	0x3ec7bee6	0.3901283
211	0xbe5473ea	-0.20747343
212	0xbea8c0b1	-0.32959512
213	0xbe13abe7	-0.14421044
214	0x3e65bca5	0.22435243
215	0xbea3cecb	-0.31993708
216	0xbdb899c5	-0.09013704
217	0xbd29c49e	-0.041447274
218	0xbea70b71	-0.32625917
219	0x3dd87754	0.10569635
220	0x3d817b2a	0.0632232
221	0x3e807d9b	0.2509583
222	0xbdbb0e5e	-0.091336
223	0x3d99c8de	0.075090155
224	0x3e64c845	0.22342022
225	0xbebd7505	-0.3700334
226	0xbde9798c	-0.11400136
227	0xbea52921	-0.3225794
228	0xbf01737a	-0.5056683
229	0xbea8e36a	-0.32986003
230	0xbd6c97aa	-0.057761826
231	0xbe23c499	-0.15992965
232	0x3d7ac649	0.061224256
233	0xbe605e03	-0.21910863
234	0xbd5d6087	-0.054047134
235	0x3e32325a	0.1740202
236	0x3ea6eec0	0.32604027
237	0x3e9783ae	0.2959265
238	0x3dc9c589	0.0985213
239	0xbd81a176	-0.06329624
240	0x3e3111f1	0.17292
241	0x3e4da7ef	0.20083593
242	0x3e77a99a	0.24185792
243	0x3eb4dc1e	0.35324186
244	0x3edc8c90	0.4307599
245	0xbde109ff	-0.10988235
246	0xbd09b00f	-0.03361517
247	0xbdca0e32	-0.09865989
248	0xbe81d76d	-0.2535967
249	0x3e9427eb	0.28936705
250	0xbe608377	-0.2192515
251	0x3e89aef0	0.2689128
252	0x3d715514	0.058919027
253	0x3eb3a8f2	0.35089833
254	0xbd805703	-0.06266596
255	0xbf31e6d2	-0.6949283

conv2.bias f4 [16]
0	0xbeba1800	-0.36346436
1	0xbf0e7c36	-0.5565828
2	0xbeec883a	-0.46197683
3	0x3eaa8229	0.3330243
4	0x3f42c5e6	0.7608322
5	0x3d24e41b	0.0402566
6	0x3db0be73	0.08630075
7	0xbe3cf8d2	-0.18454292
8	0xbe9e8c7e	-0.30966562
9	0x3e2b0915	0.16702683
10	0x3e7337f7	0.23751818
11	0x3ed4c1d7	0.41554138
12	0xbf1d0d2b	-0.6134822
13	0xbe84ecd1	-0.25961927
14	0x3e209a5e	0.15683886
15	0xbf4e43a5	-0.8057197

fc1.weight f4 [120, 1296]
0	0x3c5607c0	0.013063371
1	0xbcf3f863	-0.029781526
2	0x3c674be1	0.014117212
3	0x3dc0f475	0.094216265
4	0xbd2b634f	-0.041842755
5	0xbe341130	-0.17584682
6	0x3ca0763a	0.019587625
7	0xbc96a266	-0.018387984
8	0xbd0910e3	-0.03346337
9	0xba821894	-0.0009925538
10	0xbd793401	-0.06084061
11	0xbdaaa24c	-0.08331737
12	0xbd4949c6	-0.04914262
13	0xbd6c49fa	-0.057687737
14	0xbd48a172	-0.04898209
15	0x3dc06f7b	0.09396263
16	0x3e25d0f4	0.1619299
17	0x3d0cea9f	0.03440344
18	0x3d37a09a	0.044830896
19	0x3cb71d6f	0.022352902
20	0x3a9ce34f	0.0011969599
21	0xbe172c7f	-0.14763068
22	0x3cea70bb	0.028618207
23	0x3e4d6e7c	0.20061678
24	0xbc81fc9a	-0.01586752
25	0x3cbd39ee	0.023098912
26	0xbd8b6f95	-0.06808392
27	0x3d240230	0.04004115
28	0xbcd3c333	-0.025849914
29	0x3c98d802	0.018657688
30	0x3e09f5cb	0.13472669
31	0x3da75f32	0.08172454
32	0x3db6e8d7	0.089311294
33	0xbcd56ad4	-0.026051916
34	0xbce72fb6	-0.028220993
35	0xbd614ea4	-0.05500664
36	0xbe276f57	-0.16351067
37	0xbd0d3afa	-0.034480073
38	0x3cd6bb95	0.026212493
39	0xbdd35fdc	-0.10321018
40	0xbdc8a1c8	-0.09796482
41	0xbdfb44f9	-0.12269015
42	0xbe77b495	-0.2418998
43	0x3ce0215b	0.027359655
44	0xbd4f5383	-0.050616752
45	0xbd88fdd3	-0.06689038
46	0xbd4965d6	-0.049169384
47	0xbb661e4f	-0.003511328
48	0xbae30876	-0.0017321247
49	0x3d669d94	0.056302622
50	0x3b85a6b4	0.0040787105
51	0x3db7387d	0.08946321
52	0x3dac90cd	0.08426056
53	0x3d488fe3	0.048965346
54	0xbdc9435b	-0.098273
55	0x3d1d5295	0.038408834
56	0xba4a8edf	-0.0007726978
57	0xbe23b0ab	-0.15985362
58	0xbe49f19f	-0.19721077
59	0x3c324a0b	0.010881911
60	0xbda52684	-0.08063987
61	0x3e1a2195	0.15051873
62	0x3de8699e	0.1134827
63	0xbc38605a	-0.011253441
64	0x3bf9e586	0.0076262383
65	0xbd7c8ba6	-0.061656617
66	0xbd17af99	-0.037032697
67	0x3b59b03d	0.0033216618
68	0xbc3bea48	-0.011469431
69	0x3d8c1df9	0.06841654
70	0x3e2afdfa	0.16698447
71	0x3d7044a5	0.058659215
72	0x3d8a8e0c	0.067653745
73	0x3c8e7bba	0.017392982
74	0xbd5cfcec	-0.053952143
75	0xbe073750	-0.13204694
76	0x3d18b836	0.037285052
77	0xbd4fda23	-0.05074514
78	0x3c83c812	0.016086612
79	0xbd539d5e	-0.05166375
80	0xbc7d9710	-0.015477911
81	0x3d830518	0.06397456
82	0x3d296657	0.041357365
83	0x3dce5109	0.1007405
84	0x3d0d5b89	0.034511123
85	0x3de687e8	0.11256391
86	0x3dcf2464	0.10114363
87	0x3db6ecbb	0.089318715
88	0x3c4fb195	0.012676616
89	0x3de46e72	0.11153878
90	0xbdbc0874	-0.091813
91	0xbe36c94d	-0.17850228
92	0xbc294334	-0.010330964
93	0xbd57949c	-0.05263196
94	0xbd804a0a	-0.06264122
95	0xbe3d66cf	-0.1849625
96	0xbdb4dead	-0.088315345
97	0x3b6bd337	0.0035984048
98	0xbd93f65b	-0.07224723
99	0x3ddce443	0.10785725
100	0x3dce28a5	0.10066346
101	0xbd683f30	-0.056700885
102	0xbd87a492	-0.06623186
103	0xbc37afa5	-0.0112113105
104	0x3d0eceae	0.034865074
105	0xbdb4def7	-0.0883159
106	0xbb651fef	-0.003496166
107	0x3dd99e6a	0.10625918
108	0xbca5f236	-0.020257097
109	0xbe1c2070	-0.15246749
110	0xbe0d4b8d	-0.13798352
111	0x3e141f57	0.1446508
112	0x3d9d9076	0.07693569
113	0x3e1004a4	0.1406427
114	0x3de50ded	0.11184297
115	0xbcf377f0	-0.029720277
116	0xbd15e221	-0.036592606
117	0xbb27b174	-0.0025587948
118	0xbd40bd63	-0.047055613
119	0xbd33e920	-0.043923497
120	0xbd9e5c55	-0.07732455
121	0xbdcf13f8	-0.101112306
122	0xbe018dd9	-0.12651767
123	0xbd953120	-0.072847605
124	0xbda33adc	-0.07970211
125	0xbde838ba	-0.11338945
126	0x3c1302ae	0.008972807
127	0xbda8cb9b	-0.0824196
128	0xbe427e48	-0.18993485
129	0x3e018492	0.12648228
130	0x3dc7640e	0.09735881
131	0x3d4a0631	0.04932231
132	0x3e27c337	0.16383062
133	0xbd300666	-0.042974852
134	0xbd3af0e4	-0.045639887
135	0x3deaa0ba	0.114564374
136	0x3e157a20	0.14597368
137	0xbd8bcc57	-0.06826084
138	0xbdd5b4ea	-0.10434897
139	0xbc26a752	-0.010171728
140	0x3ca86a14	0.020558394
141	0x3da67911	0.0812856
142	0xbcf5b2ff	-0.029992579
143	0x3ba627e8	0.005070675
144	0x3d2bc6c8	0.04193762
145	0x3e8ef0dd	0.2791814
146	0x3db731c0	0.08945036
147	0x3d4b5823	0.0496446
148	0xbde5a859	-0.112137504
149	0xbd4c65f9	-0.049901936
150	0xbe241d8b	-0.16026895
151	0xbda34aba	-0.07973237
152	0x3d8f8528	0.070078194
153	0xbd89bb8c	-0.06725225
154	0x3d10cb5c	0.03535019
155	0x3bb14236	0.0054095043
156	0xbde1e4bd	-0.110299565
157	0x3cf0f2ce	0.029412653
158	0xbcf10bc8	-0.029424563
159	0xbdcac2d1	-0.099004395
160	0x3e036bc1	0.12834074
161	0x3de12e08	0.10995108
162	0x3def1045	0.11673025
163	0x3b306e70	0.0026921295
164	0xbd9d1b91	-0.076712735
165	0x3c4637ce	0.012098266
166	0x3dfca538	0.123362005
167	0x3e24e9e1	0.16104843
168	0xbdc89340	-0.09793711
169	0xbe438755	-0.19094594
170	0xbca11750	-0.019664437
171	0xbc84a24e	-0.016190674
172	0xbd9514aa	-0.07279332
173	0xbe01afd8	-0.12664735
174	0x3d282e1d	0.041059602
175	0x3dd87b46	0.105703875
176	0x3d8e8f96	0.069609806
177	0xbc724e31	-0.01478915
178	0xbad30739	-0.0016100175
179	0xbd4d33e4	-0.050098315
180	0xbb4b0d9b	-0.0030983451
181	0xbe1f244f	-0.15541194
182	0xbd899661	-0.067181356
183	0x3cc6f865	0.024288366
184	0x3cf13f69	0.029449182
185	0x3b8a62c8	0.0042232014
186	0xbd82b7c0	-0.06382704
187	0xbe3dcef9	-0.18535985
188	0xbdc633da	-0.09677859
189	0x3cb9ac12	0.022665057
190	0xbdb94476	-0.09046261
191	0x3c4da8a9	0.012552419
192	0x3db45ee8	0.088071644
193	0x3de5d736	0.11222689
194	0xbded8c9d	-0.115990855
195	0xbd0e5782	-0.034751423
196	0xbd3182ec	-0.043337747
197	0x3e019d6e	0.12657711
198	0xbdf75374	-0.12076464
199	0xbe47b4bb	-0.19502537
200	0x3c964af9	0.018346297
201	0x3d403fdc	0.0469359
202	0x3d4289f9	0.047494862
203	0xbd970e43	-0.07375767
204	0x3d23d5ff	0.039999004
205	0x3c42d08b	0.011890541
206	0x3d982cd4	0.07430425
207	0xbd13d8cd	-0.03609543
208	0xbe50a8f8	-0.20376956
209	0xbdca4303	-0.09876063
210	0xbcfe252d	-0.031023586
211	0xbcb17e41	-0.021666648
212	0xbd1c2440	-0.03812051
213	0x3da03118	0.07821864
214	0x3de53abb	0.111928426
215	0xbdd0a42c	-0.10187563
216	0x3b6da647	0.003626244
217	0x3c648af8	0.013949148
218	0xbce2e9c2	-0.027699355
219	0x3d0a2e2d	0.033735443
220	0x3d8f9ebc	0.07012698
221	0x3ccc8d37	0.02496968
222	0xbccc9f3c	-0.024978273
223	0xbc3cef30	-0.011531636
224	0xbd963e1d	-0.07336066
225	0x3d8091c5	0.06277803
226	0x3d659c71	0.056057397
227	0x3e092da5	0.13396318
228	0xbc426abb	-0.011866267
229	0xbd93cd09	-0.07216842
230	0xbdff2f0b	-0.124601446
231	0xbda05a35	-0.078297056
232	0x3a1138d6	0.000553978
233	0x3dd6a10e	0.104799375
234	0xbd855358	-0.06510037
235	0xbbee1e9b	-0.007266832
236	0xbd463830	-0.04839343
237	0xbd3fbd82	-0.046811588
238	0xbda56d0d	-0.080774404
239	0xbd371599	-0.04469833
240	0x3d050905	0.032479305
241	0xbd22a593	-0.039708685
242	0xbe0982aa	-0.1342875
243	0xbd93a23e	-0.072086796
244	0xbcdc45d7	-0.026888771
245	0x3d368559	0.044560764
246	0xbc33c592	-0.010972397
247	0xbcaf232a	-0.021379072
248	0x3ca857f7	0.020549757
249	0x3cadb161	0.021202745
250	0xbd708341	-0.058718923
251	0xbd476a30	-0.048685253
252	0x3dede0d9	0.11615152
253	0x3d6c2ee8	0.05766192
254	0xbd2013ab	-0.039081257
255	0xbc48e7fc	-0.012262341

fc1.bias f4 [120]
0	0xbd40378d	-0.046927977
1	0x3ce407f6	0.027835827
2	0xbda0c62c	-0.07850298
3	0xbd7ed3cb	-0.0622137
4	0x3d16c3fa	0.03680799
5	0xbc5997a1	-0.01328078
6	0xbda56cd3	-0.08077397
7	0x3cc99a3f	0.024609683
8	0xbd1b01e6	-0.037843607
9	0xbbde87a1	-0.0067910706
10	0xbe3d52db	-0.18488638
11	0xbd5e142b	-0.054218452
12	0xbdcc7b56	-0.09984462
13	0x3b8ad291	0.0042365273
14	0x3d496cec	0.04917614
15	0xba5b0ed1	-0.0008356395
16	0xbd1b4f41	-0.03791738
17	0xbcec6af9	-0.028859602
18	0xbdd744c2	-0.105111614
19	0xbd15c4cc	-0.036564633
20	0xbe2140c7	-0.15747367
21	0xbcc33894	-0.02383069
22	0xb885c54c	-6.3786836e-05
23	0x3d6bccfb	0.05756853
24	0xbb144aae	-0.002262752
25	0xbb98bcd3	-0.0046611815
26	0xbd5da997	-0.05411681
27	0xbc920b36	-0.017827611
28	0xbb70544c	-0.0036671339
29	0xbcc9b9ee	-0.024624791
30	0x3e3272b9	0.17426576
31	0xbd9f22d1	-0.077703126
32	0xbd05ad24	-0.032635823
33	0xbc11b513	-0.008893269
34	0x3db08c80	0.08620548
35	0x3cd85c8f	0.026411323
36	0x3c1f68b4	0.009729553
37	0x3ddc18c6	0.10746913
38	0x3e1225e3	0.14272265
39	0xbbee37b8	-0.007269826
40	0xbd6b7562	-0.05748499
41	0x3deabd46	0.11461882
42	0x3d38917d	0.045060623
43	0x3dc8f320	0.098119974
44	0xbc751683	-0.0149589805
45	0xbd84125c	-0.06448814
46	0xbd52d536	-0.051472865
47	0xbdba81d4	-0.09106794
48	0x3c1de785	0.009637718
49	0x3cb66767	0.022266103
50	0xbd5549b3	-0.05207224
51	0x3e5a3947	0.21310912
52	0x3bbb187d	0.0057097063
53	0x3e42fee3	0.19042544
54	0x3de6ab6d	0.112631656
55	0x3deaf1cb	0.114718996
56	0x3dca0ac0	0.09865332
57	0x3d19ac25	0.037517685
58	0x3c2fef93	0.010738271
59	0xbde622ce	-0.11237107
60	0x3d92088f	0.07130539
61	0x3db5a1b0	0.0886873
62	0xbdb857da	-0.09001131
63	0xbd6c5cac	-0.057705566
64	0xbd41662a	-0.047216572
65	0x3ddd424e	0.10803662
66	0xbce8ab75	-0.02840207
67	0x3cffcbbb	0.031225076
68	0x3e43d750	0.19125104
69	0x3e52a1bc	0.2056951
70	0xbca7fdee	-0.020506825
71	0xbde7f29d	-0.11325572
72	0x3d2903cb	0.041263383
73	0xbd22581d	-0.039634813
74	0x3d8cb15e	0.068697676
75	0xbd72f0fd	-0.059311856
76	0x3de67d0a	0.11254318
77	0x3e416e84	0.18889815
78	0xbbe06178	-0.0068475567
79	0x3c369fba	0.01114648
80	0x3de87018	0.11349505
81	0x3c6bcfcb	0.014392803
82	0xbe05ace2	-0.13054231
83	0xbca2d7c0	-0.019878268
84	0x3de8c935	0.11366502
85	0xbd7879b4	-0.06066294
86	0x3e62402f	0.22094797
87	0x3c38da6e	0.011282546
88	0x3de19140	0.11014032
89	0x3d760a8b	0.06006865
90	0x3d637a59	0.0555366
91	0x3c8617b5	0.016368726
92	0xba11d045	-0.00055623456
93	0xbd7e29ce	-0.062051587
94	0xbc8597ec	-0.016307794
95	0xbd2d6027	-0.042328026
96	0xbca54341	-0.02017367
97	0x3cb04f2f	0.021522133
98	0xbd355708	-0.044272453
99	0x3e1c025b	0.15235274
100	0x3d537232	0.051622577
101	0x3e4d9c81	0.20079233
102	0x3bc6fa25	0.0060723
103	0xbdbbce9c	-0.09170267
104	0xbcb746e0	-0.022372663
105	0xbce4e595	-0.027941504
106	0xbe046738	-0.1293
107	0x3d85666a	0.065136746
108	0xbd0e745f	-0.03477895
109	0x3c1a1dd5	0.009406527
110	0x3d32e99a	0.04367981
111	0xbd499074	-0.049210027
112	0x3bf26ddf	0.0073983516
113	0xbcbada62	-0.022809211
114	0xbc8f6c51	-0.017507704
115	0x3d4042a3	0.04693855
116	0xb97c2ca6	-0.00024049226
117	0xbc233f0f	-0.009963765
118	0x3b53d76b	0.0032324444
119	0x3e24534f	0.16047405

fc2.weight f4 [84, 120]
0	0xbe82eec0	-0.25572777
1	0xbcef9b21	-0.029248776
2	0xbdf7e34e	-0.12103902
3	0x3e91f8df	0.28510186
4	0xbe0ff9dc	-0.14060158
5	0xbe966994	-0.29377425
6	0x3e5675f5	0.20943435
7	0xbe8e8d9d	-0.27842417
8	0x3e1a0968	0.1504265
9	0x3d56996e	0.052392416
10	0x3d23613a	0.039887644
11	0x3cf46743	0.029834395
12	0xbe759d31	-0.23985745
13	0x3defabb3	0.11702671
14	0x3db91ee2	0.090390936
15	0xbe71e021	-0.23620655
16	0x3e9d0672	0.3066898
17	0x3b99a60a	0.004688983
18	0xbe2c773e	-0.16842362
19	0xbe8357ba	-0.25652868
20	0x3e1cbc52	0.15306213
21	0x3da1d6c9	0.07902295
22	0xbe87cf54	-0.26525366
23	0x3d50bc29	0.050960694
24	0x3e1dc3cc	0.15406722
25	0x3bbaa3ec	0.0056958105
26	0xbe87acd1	-0.26499036
27	0x3dadff37	0.08495944
28	0xbeadf07b	-0.33972535
29	0xbec3a131	-0.38208917
30	0xbd37016e	-0.044679098
31	0xb9e9c625	-0.00044588852
32	0xbe4fe981	-0.20303918
33	0x3e0aa370	0.13538909
34	0x3e17156e	0.14754269
35	0x3d6a69bb	0.05722974
36	0x3d617da5	0.055051465
37	0x3d8df2cb	0.06931075
38	0xbe5e4134	-0.2170456
39	0x3bac750f	0.005262978
40	0x3c35b925	0.011091505
41	0xbe131b32	-0.14365843
42	0xbe1cf0de	-0.15326259
43	0x3d508ab3	0.050913524
44	0xbec008b9	-0.37506655
45	0x3d5a60a1	0.05331481
46	0xbe20c81f	-0.1570134
47	0xbe5a2456	-0.21302924
48	0xbc973ea0	-0.01846248
49	0xbe821e19	-0.25413588
50	0xbdc38e9e	-0.095486864
51	0xbe8c447e	-0.27396005
52	0x3e8cdd24	0.27512467
53	0x3df85897	0.12126272
54	0x3e7a9f88	0.24474919
55	0xbc0d339c	-0.008618262
56	0xbe60b4d7	-0.21943985
57	0xbe100012	-0.14062527
58	0x3dab22f3	0.083562754
59	0xbe18c8ad	-0.14920302
60	0xbe2e20f3	-0.17004757
61	0xbed3a38e	-0.4133572
62	0x3e06279c	0.13101047
63	0xbd9df364	-0.07712439
64	0xbe055504	-0.13020712
65	0x3d78f59b	0.060781103
66	0xbe0e4f65	-0.13897474
67	0x3dc0f304	0.094213516
68	0x3e7f8399	0.24952544
69	0x3d729fbc	0.059234366
70	0x3ec03914	0.37543547
71	0x3e49c7a7	0.19705068
72	0xbe85f43c	-0.261629
73	0xbd865a1b	-0.06560155
74	0xbe7ff8fa	-0.24997321
75	0xbe2b0a43	-0.16703133
76	0x3dd71f9b	0.10504075
77	0x3ec3fd14	0.3827902
78	0xbe3a9786	-0.18221864
79	0x3d2d5ac2	0.04232288
80	0x3da491b6	0.08035605
81	0xbe10eb0b	-0.14152162
82	0x3e3eead5	0.18644269
83	0x3d232103	0.039826404
84	0xbddfbf6d	-0.109251834
85	0x3c2793cd	0.01022811
86	0x3d3b53cb	0.045734208
87	0xbdf46b31	-0.11934508
88	0x3e59db25	0.21275003
89	0x3dda366d	0.10654912
90	0xbd15a1f0	-0.03653139
91	0xbcf54e09	-0.029944437
92	0x3d7d0d05	0.061779995
93	0x3e40d988	0.18832982
94	0x3dc3ed58	0.09566754
95	0xbd13a4dd	-0.036045898
96	0xbe5463af	-0.20741151
97	0x3d91e179	0.071230836
98	0xbe3db18f	-0.18524764
99	0x3e71a3cf	0.23597644
100	0xbd430238	-0.047609538
101	0xbe267baa	-0.16258112
102	0x3e0e86d5	0.13918622
103	0x3e02f03c	0.12786955
104	0x3dd73fd4	0.10510221
105	0xbc7ad9a1	-0.015310676
106	0x3deab3e4	0.11460093
107	0xbe3147a6	-0.17312488
108	0xbe5012e2	-0.20319703
109	0xbde9a99a	-0.11409302
110	0xbd85279e	-0.06501697
111	0xbea7adfd	-0.3274993
112	0x3d2f0248	0.042726785
113	0x3d91953a	0.07108541
114	0xbe25b580	-0.16182518
115	0xbe0bad32	-0.13640288
116	0x3db54713	0.08851447
117	0x3e1b8331	0.15186764
118	0x3ee8341e	0.45352262
119	0x3ea4cbf3	0.3218685
120	0xbd792fa4	-0.06083645
121	0x3d9c9446	0.076454684
122	0xbc84daeb	-0.01621767
123	0xbc61adba	-0.01377433
124	0x3dc53434	0.096290976
125	0xbdc068bd	-0.09394977
126	0xbd75262c	-0.059850857
127	0xbc990f35	-0.01868401
128	0xbd880b88	-0.066428244
129	0x3dc9f884	0.09861854
130	0xbd631e14	-0.055448607
131	0xbd6448b9	-0.055733416
132	0x3d2c382c	0.042045757
133	0xbe24a01b	-0.160767
134	0x3d15c653	0.03656609
135	0x3cb28abf	0.021794675
136	0x3ca2b55b	0.019861868
137	0x3d374546	0.0447438
138	0xbe18c450	-0.14918637
139	0x3db393c0	0.087684155
140	0x3d70c6de	0.058783405
141	0x3e1da47a	0.15394774
142	0xbda984cd	-0.08277283
143	0x3c905ff7	0.017623885
144	0x3ba2f7d7	0.0049733925
145	0x3db5d79e	0.08879016
146	0xbd2ec4ad	-0.042668033
147	0xbd2a8a3b	-0.041635733
148	0xbd399e3c	-0.04531692
149	0xbc735678	-0.014852159
150	0x3e0dc7e1	0.13845779
151	0x3d0994d5	0.033589203
152	0xbe0d1636	-0.13778004
153	0xbd0a3fa7	-0.03375211
154	0x3db43bf3	0.08800497
155	0xbdc0e5e6	-0.0941885
156	0xbd022594	-0.03177412
157	0x3d82660d	0.06367121
158	0xbd734536	-0.059392177
159	0x3d49d0e0	0.049271464
160	0xbd902a40	-0.070393085
161	0xbd5a9132	-0.053361125
162	0xbd30edad	-0.043195415
163	0xbe519bf3	-0.20469646
164	0x3cd42e32	0.025900934
165	0xbb2d5895	-0.0026450504
166	0x3dbd2460	0.092354536
167	0x3c41a07e	0.0118180495
168	0xbe021150	-0.12701917
169	0xbda9e7a8	-0.08296138
170	0xbaf9ccdb	-0.0019058244
171	0x3d1744d6	0.03693088
172	0xbd1ee873	-0.0387959
173	0x3c860595	0.016360084
174	0x3dd2007e	0.10254
175	0xbb899c8a	-0.004199569
176	0x3e8cbca7	0.2748768
177	0x3df20488	0.118172705
178	0x3c485a29	0.012228527
179	0xbe123e75	-0.14281638
180	0xbe31b4de	-0.17354152
181	0x3db6826f	0.08911597
182	0x3de1dd63	0.11028554
183	0x3e0f581c	0.13998455
184	0xbda4bbb9	-0.08043618
185	0x3dac8922	0.084245935
186	0x3d5b6af2	0.053568788
187	0x3d43bf91	0.047790114
188	0xbe3cfe09	-0.18456282
189	0xbe19c2b2	-0.15015677
190	0x3da6be62	0.081417814
191	0x3ad77b8f	0.0016440022
192	0xbdb68c50	-0.08913481
193	0xbc145fd7	-0.009056053
194	0xbc538c8a	-0.012911925
195	0xbc8d49cf	-0.017247109
196	0x3c389bab	0.011267583
197	0x3cdeaad3	0.027181065
198	0x3def2a53	0.116779946
199	0xbe048c95	-0.12944253
200	0xbce60569	-0.028078752
201	0xbc2337e3	-0.009962055
202	0xbe309b05	-0.17246635
203	0x3c825c6a	0.015913207
204	0xbcd246e7	-0.025668574
205	0xbdc06e66	-0.09396057
206	0xbe483324	-0.19550759
207	0x3dc99ebf	0.098447315
208	0xbb627760	-0.0034556016
209	0xbdb71112	-0.08938803
210	0xbcefb976	-0.02926324
211	0xbe15cdc1	-0.1462927
212	0xbd86068e	-0.06544219
213	0x3d059700	0.032614708
214	0xbd4d742a	-0.05015961
215	0xbc167217	-0.009182475
216	0xbc6a3196	-0.014294049
217	0x3e0c7749	0.13717379
218	0xbdff3414	-0.12461105
219	0xbe53919f	-0.20661019
220	0xbddeb4f3	-0.10874357
221	0x3ca87785	0.020564804
222	0xbe5af660	-0.21383047
223	0xbd04faef	-0.03246587
224	0xbe2685ee	-0.16262028
225	0x3e017999	0.12644042
226	0x3cfbfdfe	0.030760761
227	0xbdd99db3	-0.10625782
228	0x3c0e2407	0.008675582
229	0xbdfa2702	-0.122144714
230	0x3daaf7a5	0.08348016
231	0x3dcca9c9	0.099933214
232	0xbe490a3b	-0.19632809
233	0x3c654eab	0.013995807
234	0xbcdc1024	-0.026863165
235	0xbdcb7291	-0.09933961
236	0x3d8793bf	0.06619977
237	0xbccd1643	-0.02503503
238	0x3dce1668	0.100628674
239	0x3d014076	0.031555615
240	0x3e1a461d	0.15065809
241	0x3c0bc7ce	0.008531524
242	0xbce6c84d	-0.028171683
243	0x3db7d66b	0.08976444
244	0xbe029e70	-0.12755752
245	0x3e12bc40	0.14329624
246	0x3d159566	0.03651943
247	0xbbd3028c	-0.0064395126
248	0x3dfe8038	0.124267995
249	0xbe226f6d	-0.15862818
250	0x3e011877	0.12606989
251	0xbce8a3f7	-0.028398497
252	0xbdbc200c	-0.091858
253	0xbcc8a9fc	-0.024495117
254	0xbd37dda2	-0.0448891
255	0xbd1647ed	-0.036689688

fc2.bias f4 [84]
0	0x3e89d304	0.26918805
1	0x3d4c9911	0.049950663
2	0xbd8d1c23	-0.06890132
3	0x3e04097d	0.12894244
4	0x3ccdd9e8	0.02512832
5	0xbbb3d0cf	-0.0054875384
6	0x3eadce5a	0.33946496
7	0x3ea74d5d	0.3267621
8	0x3e4b0fec	0.19830292
9	0xbcee0577	-0.02905534
10	0x3eb6f212	0.3573156
11	0x3e2120cb	0.15735166
12	0xbd60c015	-0.054870684
13	0x3eb3a4ce	0.35086673
14	0x3e7e3016	0.24823031
15	0xbc23dceb	-0.010001401
16	0xbd6595ef	-0.05605119
17	0xbe0f33ea	-0.13984647
18	0x3eafd255	0.34340158
19	0xbd2961d3	-0.041353058
20	0xbe964eaf	-0.29356906
21	0xbd7364fa	-0.05942247
22	0x3d7a98a7	0.061180737
23	0x3e0c6b2a	0.13712755
24	0x3e8b3a8d	0.27193108
25	0xbdd5a042	-0.104309574
26	0x3d50be7d	0.050962914
27	0x3db47199	0.088107295
28	0x3d840ffa	0.0644836
29	0x3dec70e4	0.1154497
30	0x3ddef7cb	0.108871065
31	0xbd23d167	-0.039994624
32	0xbc49f679	-0.01232683
33	0x3e81522d	0.25258008
34	0xbdf76abd	-0.120809056
35	0x3eb4e7a9	0.35332993
36	0x3eb20b20	0.34774113
37	0x3b7a9f0f	0.003824178
38	0x3ce5a16e	0.028031077
39	0x3e772ced	0.24138232
40	0x3ed69d88	0.41917062
41	0x3d1b31cd	0.03788929
42	0x3dbea6e7	0.09309178
43	0x3c048cfa	0.008090252
44	0xbdabd200	-0.08389664
45	0xbd108d47	-0.035290983
46	0x3ef0b2ac	0.47011316
47	0xbd257f1c	-0.040404424
48	0xbc0ee993	-0.008722681
49	0xbdebc469	-0.11512072
50	0x3dad4d47	0.08462005
51	0x3bb00c03	0.0053725257
52	0x3dbda9b9	0.09260888
53	0x3ec6778f	0.3876309
54	0x3ed0886d	0.40729085
55	0x3ec3a45f	0.38211343
56	0x3e0e5d05	0.13902672
57	0x3e1c6fe8	0.15277064
58	0x3e69b6be	0.22823617
59	0xbdc9bdd6	-0.098506615
60	0x3e94bc58	0.29049945
61	0xbd5c9f50	-0.05386287
62	0x3e015620	0.1263051
63	0x3e4e6b4e	0.20158121
64	0xbdfa94c4	-0.12235406
65	0x3daa582a	0.08317597
66	0x3c8aea65	0.016957471
67	0xbe76a8e7	-0.24087869
68	0x3d32232d	0.043490577
69	0x3e1115bd	0.14168449
70	0x3e6ed667	0.23323976
71	0x3dc71b4a	0.09722002
72	0x3ecb06e5	0.39653698
73	0x3e7b966f	0.24569105
74	0xbdb06f4e	-0.0861498
75	0x3b797f18	0.0038070139
76	0x3dbd0ce4	0.09230974
77	0xbdff7771	-0.124739535
78	0x3e612a2a	0.2198874
79	0xbd903470	-0.07041252
80	0x3e8fbf7b	0.28075776
81	0xbdea9cf0	-0.11455715
82	0xbc6bbcd1	-0.014388279
83	0x3eae4064	0.340335

fc3.weight f4 [7, 84]
0	0x3ea90710	0.330132
1	0xbe8f2efc	-0.27965534
2	0x3e783522	0.24239019
3	0xbe48ecc1	-0.19621564
4	0xbdd3e557	-0.103464775
5	0xbe443706	-0.19161615
6	0xbd1ef492	-0.03880746
7	0x3e83f2bd	0.25771132
8	0x3e39278c	0.18081492
9	0x3e5ec140	0.21753407
10	0x3dcf8627	0.101330094
11	0xbd8f5047	-0.069977336
12	0xbe2a2de2	-0.16619065
13	0xbdad784f	-0.08470213
14	0xbe739d51	-0.2379048
15	0xbe72bca2	-0.2370477
16	0xbe50f45b	-0.20405714
17	0xbde648f5	-0.11244384
18	0xbe0391c7	-0.12848578
19	0xbd5dd5f4	-0.05415912
20	0x3e9d7edf	0.30760857
21	0x3d999c0a	0.07500465
22	0x3e126b43	0.1429873
23	0x3e83a799	0.25713804
24	0x3e5f4dfd	0.21807094
25	0x3d8ce687	0.06879907
26	0xbd2e3b80	-0.042537212
27	0xbd9a02f4	-0.075200945
28	0x3cf0c89f	0.029392539
29	0x3e46ecfc	0.1942634
30	0xbebd42aa	-0.36964923
31	0xbe857685	-0.26066986
32	0xbd761d69	-0.06008664
33	0xbe95acd7	-0.2923343
34	0x3de747de	0.112930045
35	0x3d0a642e	0.033786945
36	0x3e3f5517	0.18684803
37	0xbe22e78e	-0.15908644
38	0x3e94ff47	0.2910101
39	0xbd0c66f9	-0.03427789
40	0xbd067ad2	-0.032831974
41	0x3e28d41e	0.16487166
42	0xbdaf787d	-0.08567903
43	0x3d4f0f92	0.05055196
44	0x3ded9b8b	0.11601933
45	0xbe153bf3	-0.1457365
46	0x3d036c00	0.03208542
47	0x3e949445	0.2901937
48	0xbdaa1ce7	-0.08306294
49	0xbe46a77c	-0.19399828
50	0x3e8312ae	0.2560019
51	0x3ea543ff	0.3227844
52	0x3e37886b	0.17923133
53	0xbe8dca3b	-0.27693352
54	0x3ebe60fa	0.37183362
55	0x3df1559a	0.11783905
56	0xbdb2a3fd	-0.087226845
57	0xbe7e9b81	-0.24864008
58	0xbcfe1afd	-0.031018728
59	0x3e7e5b9b	0.24839632
60	0x3e095aba	0.13413516
61	0xbdcb2b49	-0.09920365
62	0x3d8257f6	0.063644335
63	0x3e6cf986	0.2314206
64	0xbd60ef46	-0.05491569
65	0x3ebe6dc3	0.37193117
66	0x3e859d54	0.26096594
67	0x3e5693b1	0.20954777
68	0xbc202328	-0.009774007
69	0xbd8cffb7	-0.06884711
70	0xbd9e3fb0	-0.07726991
71	0xbc2676eb	-0.010160188
72	0xbe5db031	-0.21649243
73	0x3e63fdd3	0.22264795
74	0x3d657d41	0.056027655
75	0xbed196a0	-0.4093523
76	0xbcf6b20c	-0.030114196
77	0xbdb2bbd9	-0.08727235
78	0xbdfecfa0	-0.12441945
79	0x3d91cc9e	0.07119106
80	0x3dd96476	0.106148645
81	0xbe74e690	-0.23916078
82	0x3dbe0aac	0.09279379
83	0xbe10b8fa	-0.14133063
84	0xbea54e20	-0.32286167
85	0x3e29d78c	0.16586131
86	0x3e68d015	0.22735627
87	0xbce482b5	-0.027894357
88	0xbdea2d77	-0.11434453
89	0xbb11320c	-0.0022155074
90	0xbea55479	-0.3229101
91	0xbe04b388	-0.1295911
92	0x3e358809	0.17727675
93	0x3e89eaac	0.26936853
94	0x3e9d6bb6	0.3074624
95	0x3e5e3646	0.21700391
96	0x3d1aa87f	0.037758347
97	0x3e0f8434	0.14015275
98	0xbea36af3	-0.31917533
99	0x3c18c86c	0.009325128
100	0x3dac44c8	0.084115565
101	0xbcf33a7b	-0.029690972
102	0xbf3bf5d9	-0.7342201
103	0x3d15ff03	0.03662015
104	0xbe3a2972	-0.18179873
105	0x3d6e2f9c	0.058150873
106	0x3c45086f	0.0120259365
107	0xbecbaa09	-0.39778164
108	0x3eec9355	0.46206155
109	0xbeb7b179	-0.35877588
110	0xbe437922	-0.19089177
111	0x3cb9f6c6	0.022700679
112	0xbe674fa0	-0.22588968
113	0x3ecc2c4e	0.39877552
114	0x3e56c42d	0.20973273
115	0x3e8978e1	0.26850036
116	0xbd59f219	-0.053209398
117	0xbe7b4e6d	-0.24541636
118	0xbdba7054	-0.09103456
119	0xbf2cd36a	-0.6751009
120	0xbf2e3ef6	-0.6806482
121	0xbe6b9f06	-0.23009881
122	0x3e5021a8	0.20325339
123	0xbe2eb88f	-0.17062591
124	0xbec5922e	-0.3858809
125	0x3d6d5a2d	0.057947326
126	0xbc96b7ff	-0.018398283
127	0xbdda08cf	-0.10646211
128	0xbcdd3143	-0.027001029
129	0x3c6d8e09	0.014499196
130	0xbea0ebcb	-0.31429896
131	0x3bbef4fb	0.005827544
132	0x3ecaec83	0.3963357
133	0xbd3215c4	-0.04347779
134	0xbe956efe	-0.29186243
135	0xbdd81c37	-0.105522566
136	0x3e481dee	0.19542667
137	0xbe5d9801	-0.21640016
138	0xbe8a0674	-0.26958048
139	0xbd8f473e	-0.0699601
140	0xbc8089f2	-0.015690777
141	0x3e3a90b7	0.18219267
142	0xbd8ced15	-0.06881157
143	0xbdb0b885	-0.08628944
144	0x3e13e795	0.1444381
145	0x3dc33abc	0.09532687
146	0xbf0040d7	-0.5009894
147	0xbe827a67	-0.2548401
148	0x3da752e5	0.08170108
149	0xbde8d00f	-0.11367809
150	0xbe26aa7c	-0.16275972
151	0xbe135aaa	-0.14390054
152	0x3e969de0	0.29417324
153	0x3e229011	0.1587527
154	0xbea10b43	-0.31453905
155	0x3ecf1a26	0.40449637
156	0x3e7e6856	0.24844489
157	0xbf17eb6d	-0.59343606
158	0xbda13159	-0.078707404
159	0xbe140799	-0.14456023
160	0x3ee0680d	0.43829384
161	0xbdbd53ec	-0.092445225
162	0xbe60f711	-0.21969248
163	0x3e079686	0.13241014
164	0xbea67368	-0.32509923
165	0xbe4deec3	-0.20110612
166	0x3ce673c6	0.028131377
167	0x3b2159a1	0.0024620073
168	0x3ccc680f	0.024951963
169	0x3d134cf3	0.035962056
170	0xbd116fd3	-0.035507035
171	0xbe7d3891	-0.2472861
172	0x3c97e164	0.018540092
173	0xbdb23ec9	-0.087033816
174	0x3e7e2a6c	0.2482087
175	0xbe3014e4	-0.17195469
176	0x3e59b53c	0.21260542
177	0x3dc45fc3	0.095885776
178	0x3e574349	0.21021761
179	0x3e0a74b6	0.13521084
180	0x3d166ad8	0.036722988
181	0xbe9cf849	-0.30658177
182	0x3eb73ad6	0.35787076
183	0xbd2b78a2	-0.04186309
184	0x3e8dd7b3	0.27703628
185	0xbe2bec77	-0.16789423
186	0x3ea502c1	0.32228664
187	0x3e4db2ec	0.20087785
188	0x3e03d94e	0.12875864
189	0xbe26c3a6	-0.16285571
190	0xbcb9d17f	-0.022682903
191	0xbec4fde6	-0.3847496
192	0x3dd1c35a	0.102423385
193	0x3e188ee1	0.14898254
194	0xbe43f180	-0.19135094
195	0xbe9bca5a	-0.3042782
196	0x3e3125de	0.17299601
197	0xbdc5ddb3	-0.096614264
198	0xbe4facc9	-0.20280756
199	0xbc7b204c	-0.015327524
200	0xbba34635	-0.0049827346
201	0x3e8e21be	0.27760118
202	0xbe320c1e	-0.17387435
203	0x3d48c6e5	0.049017806
204	0x3e1380af	0.14404558
205	0xbe208848	-0.15676987
206	0x3d6505bc	0.05591367
207	0xbea4361c	-0.32072532
208	0xbde3fb4b	-0.11131915
209	0xbe662612	-0.2247546
210	0x3dcf86e7	0.101331525
211	0x3e2df1b2	0.1698673
212	0xbce28700	-0.027652264
213	0x3ea740ad	0.3266653
214	0x3e45e6b4	0.19326288
215	0x3c8a8688	0.016909853
216	0x3d9107fa	0.070815995
217	0x3e572590	0.21010423
218	0x3dfc4e6e	0.12319647
219	0x3dd96682	0.10615255
220	0xbe845f3a	-0.25853902
221	0x3d113678	0.035452336
222	0xbec55558	-0.38541675
223	0xbd012ee8	-0.031538874
224	0x3e12cca0	0.1433587
225	0x3e823737	0.2543275
226	0xbe03a25c	-0.12854904
227	0xbe972419	-0.29519728
228	0xbe6d4f3f	-0.23174761
229	0xbdc5ac06	-0.096519515
230	0x3e4b320b	0.19843309
231	0x3ca5ac33	0.020223713
232	0x3de0b07e	0.10971163
233	0x3e1be229	0.15222992
234	0xbd5eaa55	-0.05436166
235	0x3e496b12	0.1966975
236	0xbe416a5c	-0.18888229
237	0x3d1c58a4	0.03817047
238	0x3d816cb0	0.063195586
239	0xbe8d798c	-0.27631795
240	0xbf0b0793	-0.5430843
241	0x3dda04f5	0.10645477
242	0x3e39f64f	0.18160366
243	0x3e085009	0.13311781
244	0x3e223049	0.15838732
245	0x3d99d145	0.07510618
246	0xbcaa4df9	-0.020789133
247	0x3e20e1f4	0.15711194
248	0x3ed9dafd	0.42549887
249	0x3e21241c	0.15736431
250	0xbe41bc76	-0.18919548
251	0x3e43e084	0.19128615
252	0x3ee4fd5f	0.44724557
253	0xbd33cd61	-0.043897036
254	0xbd24e731	-0.040259544
255	0x3d939324	0.07205799

fc3.bias f4 [7]
0	0xbd657fa7	-0.056029942
1	0xbf07ef4f	-0.5309953
2	0x3edbfa8d	0.42964593
3	0x3ece030f	0.4023671
4	0xbd496c03	-0.049175274
5	0x3ed9f0da	0.42566568
6	0xbf0cecce	-0.55048835
