models/emotion_net.pth (torch, 679877 bytes, 10 tensors)

conv1.weight f4 [6, 1, 5, 5]
000000 cf c5 f9 bd 71 9a 3f bd 0c a9 9b be ae 64 a0 bd
       -0.12195932 -0.046778146 -0.3040241 -0.07831703
000010 a8 24 d8 3d ce b8 88 bc fa 45 a2 be bc 33 4f 3d
       0.105538666 -0.016689684 -0.31694013 0.050586447
000020 a1 0f c5 3e 89 de 35 3e 67 57 e6 bd 17 3c c2 3d
       0.38488486 0.17760672 -0.112471394 0.094841175
000030 47 2b cb 3e 41 45 fa 3e 80 45 6d be 74 5a 45 3e
       0.39681455 0.48880962 -0.23171043 0.19272786
000040 80 6b 5f 3e 2f 1b fb 3e ab a7 0c 3e 7c 33 21 bf
       0.21818352 0.49044177 0.13735835 -0.62969184
000050 8e 79 08 3c 20 95 a7 3d d3 d1 63 be bd a3 03 bf
       0.008329762 0.0818274 -0.2224801 -0.5142172
000060 ff a2 10 be f8 0c 19 3e 08 a5 b0 3e 50 06 04 3e
       -0.14124678 0.14946353 0.3450091 0.12893033
000070 65 45 dc be 1d ae 27 be 3f 39 b3 3a f9 1a b7 be
       -0.43021694 -0.16375013 0.0013673677 -0.35762766
000080 06 75 24 bf b0 69 14 bf 88 69 41 3e 1a d3 46 be
       -0.64241064 -0.57973766 0.18887913 -0.19416466
000090 a4 13 a6 be 84 34 b3 be 63 fe 65 be c4 25 6c 3e
       -0.3243686 -0.35001004 -0.22460322 0.23061281
0000a0 7b 26 ef bb a6 4d 40 bd db 29 29 bd 8d 9e 6f 3e
       -0.0072982884 -0.04694905 -0.041299682 0.23400326
0000b0 cc 5d d9 3e 65 86 e1 bd 33 f2 7e 3e aa 2b 4f 3d
       0.42454374 -0.11011962 0.24897079 0.05057875
0000c0 99 08 a7 3e a7 5f 85 3d 5b 0f c1 bc a2 b0 ab 3c
       0.32623747 0.06512385 -0.023566892 0.020958249
0000d0 19 e0 b8 3e b7 f3 50 3e 72 c9 83 3e 18 0d 77 3e
       0.36108473 0.2040547 0.25739628 0.24126089
0000e0 06 b2 26 bd 59 07 e4 bd 0a 83 7b 3d 7f ed 87 3e
       -0.04069712 -0.11134214 0.061404265 0.26548383
0000f0 07 50 79 be aa 8c b8 be 97 14 f6 bd e6 7f 23 bf
       -0.24346934 -0.36044818 -0.12015646 -0.6386703
000100 20 ec d6 be de 0b 4d 3d 8d d8 23 3e b5 8a 2b 3e
       -0.41977024 0.050060146 0.16000576 0.16752131
000110 7f b0 fe bd 93 bc 07 bf b2 02 3a 3d 2e 85 4f 3e
       -0.12436008 -0.53022116 0.045412727 0.20265648
000120 87 74 00 3e d0 1d a4 3e 0e c9 51 be 80 d9 84 3d
       0.12544452 0.32053995 -0.20486853 0.06486797
000130 92 a2 b4 bb 8f 0b 89 be d2 80 74 be 12 b2 a6 be
       -0.005512544 -0.2676663 -0.23877266 -0.32557732
000140 c7 15 81 3e 98 0e 51 3e f8 71 e6 3d 25 a4 9f 3d
       0.25211927 0.20415723 0.112522066 0.0779498
000150 ab 47 4f be 6d 1b 7b 3e 0b 3a 83 3e 7d 14 6f 3e
       -0.20242183 0.24522181 0.2563022 0.2334766
000160 f5 ec db 3d cd cf 72 be bd fb c7 3d 91 e4 9a 3e
       0.10738555 -0.23712082 0.09764812 0.30252507
000170 7c 4c 80 3e 7e e3 e7 3d 76 4e 77 3d 9e ab 5f 3d
       0.25058353 0.113226876 0.06037756 0.054607026
000180 64 8a 69 bd 5e ba a9 3e 32 0b 14 bd 01 c4 a3 bd
       -0.057016745 0.3315 -0.03614349 -0.07996369
000190 41 0a 28 be 3d 98 b4 3d 91 32 30 3e 2e 49 3f 3e
       -0.16410162 0.088181 0.1720679 0.1868026
0001a0 62 7a 18 3e 55 8f 2a be 80 32 0b 3e 6f 3d bd bd
       0.14890435 -0.1665624 0.13593483 -0.09240233
0001b0 28 29 ce 3d 49 75 85 bc e3 65 68 3e 53 f3 cd bc
       0.10066444 -0.016291277 0.22695117 -0.02514044
0001c0 f9 62 89 3e 86 b0 22 3e fa 11 0c 3e 35 0d 19 3e
       0.26833323 0.15887651 0.13678733 0.14946444
0001d0 2c 69 39 3e 1c 07 1f 3e bb a3 5d 3b 26 30 0c 3d
       0.18106526 0.15530056 0.0033819515 0.034225605
0001e0 8b 6c a5 bd 39 79 20 bd e4 e0 fc 3d 44 21 92 3d
       -0.080773436 -0.039178107 0.12347582 0.07135251
0001f0 15 64 9d bd c0 22 02 3e f3 50 bb bd 1c c6 fa 3d
       -0.07685105 0.12708569 -0.09146299 0.122448176
000200 ea 3d c4 bd dd 1e d1 be 1c c3 65 3e ba e2 c9 3e
       -0.09582122 -0.4084386 0.2243771 0.3943079
000210 11 22 81 3e 3d 1d be bb fa d7 b4 be 74 10 f7 3c
       0.25221303 -0.0058018253 -0.35321027 0.030159213
000220 d4 6a 95 3e 99 38 91 3e a4 3b 13 bf 89 50 1f 3d
       0.29183066 0.28363493 -0.5751288 0.038895164
000230 ff 39 1b be cc 61 34 3e 7f 4d 72 3e ca 4e 09 bf
       -0.15158843 0.17615432 0.23662375 -0.5363585
000240 7b f1 66 3c c0 6c 7a 3b 30 ba 72 3e 13 df c9 bd
       0.014095659 0.0038211793 0.23703837 -0.09857001
000250 ff 65 0c be 26 51 75 3c
       -0.13710783 0.014972961

conv1.bias f4 [6]
000000 db d6 99 3c 2c 19 aa 3c 8f ac 29 3e 5e c5 cc be
       0.018779209 0.020763956 0.16569732 -0.3999433
000010 19 d0 f0 bd a0 4c ea bd
       -0.117584415 -0.11440396

conv2.weight f4 [16, 6, 5, 5]
000000 0b 21 3a be b2 75 f1 bd 3a a9 bf be 0d ad 84 be
       -0.18176667 -0.11790027 -0.37433797 -0.25913277
000010 20 80 01 be 07 a7 f2 bd d2 d5 64 be ef 7b 05 be
       -0.12646532 -0.11848264 -0.22347191 -0.13035558
000020 f2 dd ef 3d e1 fb b6 bd cc 10 b1 bd be 9d 6b be
       0.117122546 -0.08934761 -0.08645782 -0.23009393
000030 f6 f1 28 bc 92 b2 8b bd dd 25 89 bd 3f 97 84 3d
       -0.010311594 -0.06821169 -0.06696675 0.064741604
000040 7e e8 b8 3d 8a ee b9 3e 93 2f ad 3e a5 40 45 3e
       0.09028719 0.36314803 0.3382536 0.19262941
000050 04 ea 13 bd d7 96 7c bd 2b 92 00 be 21 cd 8b 3b
       -0.036111847 -0.06166729 -0.12555759 0.0042663966
000060 b4 41 a3 3c 45 ae 8b ba a7 78 2e 3d a9 50 9c 3d
       0.01992879 -0.0010656795 0.04259553 0.07632572
000070 8d 19 84 3d 95 46 d6 3d d4 e1 c1 3d 53 7a aa bd
       0.06450186 0.10462681 0.094669014 -0.08324113
000080 ad 5e c2 bd 44 76 20 be 17 56 50 be 91 86 96 3d
       -0.09490714 -0.15670115 -0.2034534 0.07349885
000090 85 19 c3 bd 02 c2 bf bd 11 b0 8e 3d e6 d3 58 3e
       -0.09526352 -0.09363176 0.06967176 0.21174583
0000a0 44 b7 e1 3a 34 a3 07 be 67 ce 64 3b f7 07 f8 3d
       0.0017220755 -0.13245851 0.0034913064 0.12110894
0000b0 fb 93 02 3e 34 f4 02 be 8d 7a 45 be 12 0b 3d bd
       0.12751763 -0.12788469 -0.1928503 -0.046153136
0000c0 3f d5 42 be c7 29 1b bd a3 a9 15 3d 90 3d 01 3d
       -0.1902666 -0.03788164 0.03653873 0.03155285
0000d0 71 61 13 3e 7c 90 49 3e de aa ef 3d 42 42 80 bd
       0.1439264 0.19684023 0.11702512 -0.06262638
0000e0 76 f8 16 be d8 f1 01 be d9 6c 84 bd 08 59 ed bc
       -0.14743218 -0.12689912 -0.064660735 -0.028973117
0000f0 fa 3a ca bd f9 2e 85 3d eb 05 85 3e cd 26 69 3e
       -0.0987453 0.065031 0.25981078 0.22768708
000100 53 8a bb 3d 85 71 ed bd 7d d3 58 be 71 89 81 be
       0.091572426 -0.11593918 -0.21174426 -0.25300172
000110 1b 8b 5b be 5f e4 2e 3c 93 d8 09 3e 6a 24 ae bd
       -0.21439783 0.010674565 0.13461523 -0.08503039
000120 33 87 08 3c 07 8e e9 3d 8f 41 0a 3e 8e 96 ae be
       0.008333015 0.11404043 0.13501571 -0.3409924
000130 a0 97 86 be 1f f1 60 be 28 8d cf bd 2e f0 11 be
       -0.26287556 -0.2196698 -0.10134345 -0.14251778
000140 df 97 95 be 0a f8 2f be a1 e4 a8 bd df 3e ca bd
       -0.2921743 -0.17184463 -0.082467325 -0.09875273
000150 8e 65 8a bc 7f c6 91 be 86 21 42 3d ad b7 4e 3e
       -0.016894128 -0.28471753 0.04739525 0.20187254
000160 4e a6 2a 3e 99 6f c7 3d a0 16 7e be e5 76 4a 3d
       0.16665003 0.097380824 -0.24813318 0.049429793
000170 9e da 93 3e ec 4a 92 3e 78 80 32 3e 31 4e 8b be
       0.2887773 0.28572786 0.1743182 -0.27208093
000180 28 4d a1 be f5 75 8b bd 5b d8 06 3d 0f 43 df bd
       -0.31504178 -0.06809608 0.032921176 -0.10901462
000190 4f 57 8f be 82 48 3f be 05 7c d1 3c bd c5 a5 bd
       -0.279963 -0.18680003 0.025571832 -0.08094356
0001a0 34 9b 80 be f2 82 01 be c0 bf 38 3d c7 68 04 bc
       -0.2511841 -0.12647608 0.045104742 -0.0080816215
0001b0 92 7e 01 be 53 83 76 be 35 ce af 3c 37 95 5a 3e
       -0.12645939 -0.24073534 0.021460632 0.21345983
0001c0 e6 7e 35 3e 64 83 15 3e 00 65 53 bd d6 ae f0 3a
       0.17724189 0.14600903 -0.051609993 0.0018362652
0001d0 24 f6 ce 3d 8d fb 2a 3e b5 73 95 3d 67 f5 4e 3e
       0.10105541 0.16697522 0.0729746 0.20210801
0001e0 05 e3 c5 bd 5b 7d a1 3d ad e1 cf 3d 99 27 de 3d
       -0.09662441 0.07885238 0.10150466 0.108473964
0001f0 c2 87 00 3e 7b 1e 69 bd 30 a8 f7 bd d4 24 28 be
       0.12551787 -0.056913834 -0.12092626 -0.16420299
000200 50 35 60 3d 97 a9 a9 3d 24 62 09 be 2f e8 81 be
       0.054738343 0.082843 -0.13416344 -0.25372455
000210 5a 1c 9d be 98 c5 1a bd 63 c4 a5 3d 57 30 6c be
       -0.30685693 -0.037786096 0.080940984 -0.23065315
000220 9f a7 26 bf 4b e1 a0 be 8f 92 e3 bd 20 c6 35 be
       -0.6509952 -0.31421885 -0.11111938 -0.1775136
000230 a7 89 c9 3d 7e df 67 3e 22 41 16 3e fe f4 60 3e
       0.09840708 0.22643849 0.14673284 0.21968457
000240 2e 67 44 3e 76 cb c9 be c4 ad d4 bc 49 cd f3 3b
       0.19179985 -0.3941304 -0.025961764 0.0074402434
000250 e4 98 ef 3d 29 39 06 3e a7 bd bd 3c 9d 92 1d be
       0.116990834 0.13107742 0.023161722 -0.1538796
000260 18 a2 48 3d d2 ca 83 3e c3 66 31 3d e9 5b ad 3c
       0.04898271 0.25740677 0.04331089 0.02116199
000270 b7 e0 1b 3d 97 c4 88 3d bf 19 01 3e 5b 82 01 3e
       0.0380561 0.066781215 0.12607478 0.12647383
000280 6f 9f 0e 3d da 2f 03 3d 68 fa a9 3d a7 50 2c 3d
       0.034820016 0.032028057 0.08299714 0.042069104
000290 0c d9 e0 bd 2a 03 0b be 9e 65 a2 bd 6b ca 4e be
       -0.109788984 -0.13575426 -0.07929538 -0.20194404
0002a0 aa b4 ac bd 6e b3 c6 bc 5c c9 a9 bc 12 0e e7 bd
       -0.084328964 -0.02425548 -0.020725898 -0.112819806
0002b0 19 e1 17 be e9 94 95 be 34 0b 65 bd 7b 29 f1 bd
       -0.14831962 -0.29215172 -0.055918887 -0.1177549
0002c0 ec a7 82 3d 60 b1 d0 bc d4 1f 9d bc 8b 39 3e bc
       0.06379685 -0.025475204 -0.019180216 -0.011610399
0002d0 b8 0c b2 bd 10 0d 9e b7 a7 04 53 be aa f8 70 be
       -0.08693832 -1.884115e-05 -0.20607243 -0.23532358
0002e0 11 29 6a bc ad ae 14 be 41 21 c5 bd 90 9f f1 3c
       -0.014292018 -0.14519759 -0.09625483 0.02949503
0002f0 58 f1 33 be 3a 12 c7 3d 3d 1d 16 be 5f 1c de 3d
       -0.17572534 0.09720273 -0.14659591 0.10845255
000300 89 a8 27 3e 37 50 74 3e df a2 34 3e e2 11 f1 3c
       0.16372885 0.23858725 0.17640255 0.029427473
000310 1c c9 a3 3d 2a 17 94 bd e5 a7 03 3e 88 e5 b0 3e
       0.07997343 -0.07230981 0.12857015 0.34550118
000320 92 f0 a6 bb 66 ca 85 3a 0e f8 b8 bd 3a 5d 0d be
       -0.005094596 0.0010207414 -0.09031688 -0.13805094
000330 7b 86 05 3e f1 f2 3e be bd ad 8d be d2 6e c3 be
       0.13039581 -0.18647362 -0.27671614 -0.38170487
000340 20 c0 2c be f1 4b 82 bd 1c d8 80 bd f2 32 83 bd
       -0.16870165 -0.06362141 -0.062912196 -0.064062014
000350 a7 77 91 bd 0d f7 fd bd 18 8f 81 bd ee 91 00 3e
       -0.071029 -0.12400637 -0.06326121 0.12555668
000360 f1 84 21 3e b1 50 b6 3d 78 e4 d9 3d b6 1e f8 bc
       0.1577337 0.089021094 0.1063928 -0.030288082
000370 f5 6f f8 3d 12 ca 34 3e a1 b3 10 3e b0 b7 5a 3e
       0.12130729 0.17655209 0.14131023 0.21359134
000380 78 05 0f 3e e9 bf 11 3d 6d 2d da 3d 41 27 ed bc
       0.1396693 0.03558341 0.106531955 -0.028949382
000390 0f b2 a5 bc 20 9f df bd c1 cd 2b 3d 7d 97 cf 3c
       -0.020226507 -0.109190226 0.04194427 0.02534079
0003a0 ed 93 ff 3d 58 65 74 3e 70 44 d4 3d 90 0f 4f be
       0.124793865 0.23866785 0.10364616 -0.2022078
0003b0 ef 96 33 be 08 3d c6 3d 64 2b 2a 3e 81 fc 41 3e
       -0.17538045 0.096796095 0.16618115 0.18943979
0003c0 f5 32 e3 bc 9e 12 33 be 66 13 8d be de 47 3c bd
       -0.02773426 -0.1748757 -0.27553862 -0.045966975
0003d0 9b 2c 51 3c c3 83 41 3e cd 40 c8 3d 12 cf 23 be
       0.012766982 0.1889792 0.09777985 -0.1599696
0003e0 fb dc c7 be 27 41 a5 be 7d 62 85 bc 10 33 1f 3d
       -0.39035782 -0.3227627 -0.016282314 0.038867056
0003f0 16 cc e2 3c 5c 6e d9 3d c9 45 46 bd a8 d3 c1 3d
       0.027685206 0.106167525 -0.048406396 0.09464198

conv2.bias f4 [16]
000000 b8 2a fd bb f0 ea 38 3d 9c 5e fa 3d 94 ed 19 3d
       -0.0077260397 0.04514593 0.122250766 0.037580088
000010 58 f0 f8 bc 29 95 d3 bd 7b f3 86 3e 7a 64 2c 3e
       -0.030388042 -0.103311844 0.26357636 0.16835204
000020 9a 10 bc 3d 43 31 c6 3d 96 93 45 3d 9d 0f 91 bd
       0.09182854 0.09677365 0.048236452 -0.07083056
000030 45 13 f5 3c 25 a8 c5 bb 03 13 b5 3e 69 72 70 be
       0.029916415 -0.0060320073 0.35366067 -0.23481144

fc1.weight f4 [120, 1296]
000000 b5 02 08 bd 00 15 46 3c e1 76 bb bb 27 0d 96 bb
       -0.033205707 0.012089968 -0.0057209586 -0.0045792046
000010 9d 67 88 bc 2c 35 25 bc 0b ff b9 bc c1 72 e9 bc
       -0.01665097 -0.010083478 -0.022704622 -0.028497102
000020 90 4c 6b 3b 5c 81 f3 bc 61 73 78 bc 57 21 2a 3b
       0.003590379 -0.02972477 -0.015164227 0.0025959814
000030 68 30 1b 3c d8 24 3b bc f9 4b 9d bc 6c 7f 0e bd
       0.00947199 -0.011422358 -0.019201266 -0.034789488
000040 7b 07 7d bc b4 6a 93 bc 24 f0 f2 3a a0 8c b0 bc
       -0.015443678 -0.017995216 0.0018534702 -0.02155143
000050 ee 09 8d 3c 46 41 aa bc 55 40 eb ba 79 4e b8 3b
       0.017216649 -0.020783078 -0.001794825 0.005624589
000060 a1 88 a9 3b c4 fb 10 bd c4 0f ee bc cb 5e 80 bc
       0.005173758 -0.035396352 -0.029060252 -0.0156702
000070 de 40 32 3c dd 2b d1 bc 4a a3 18 3c e0 a9 3d bc
       0.010879723 -0.025533611 0.009316275 -0.011576146
000080 ee fd 80 ba 64 89 7a bc 79 f8 06 bd 98 73 fa bc
       -0.0009841302 -0.015291546 -0.032951806 -0.030572698
000090 9e e2 6d 3c 5d 01 9f bb 96 81 8f bc c3 8d 88 3c
       0.014519362 -0.0048524574 -0.017517846 0.01666916
0000a0 df d5 82 bc 6b 92 de bb 12 4b b7 bc 5f 57 9d bb
       -0.015971122 -0.0067923567 -0.022374664 -0.004801675
0000b0 c7 91 b4 3c 45 4b 53 bc 83 1c 0e bc d3 91 0a bd
       0.022042168 -0.012896364 -0.00867379 -0.033830475
0000c0 2b 29 25 ba 3c 60 ed bc 69 f5 4d 3c da 3f 89 3c
       -0.0006300385 -0.028976552 0.012570717 0.01675408
0000d0 dc 01 ae 3c 89 5d 12 bb 71 ef 4a 3c f1 31 7e 3c
       0.021241121 -0.0022333583 0.012386189 0.015514837
0000e0 30 0b 69 3c ee 11 09 bd d1 99 bd bc 63 eb d7 bc
       0.014223859 -0.033464365 -0.023144634 -0.026357358
0000f0 c0 36 47 3c b4 f6 92 3c 8f 2d 59 3c 41 e0 a2 3b
       0.0121590495 0.017939903 0.013255491 0.004970581
000100 d1 8c 54 bc 42 2e 89 bc 6e 14 27 3c 88 4a c9 bc
       -0.012973026 -0.01674569 0.010197742 -0.024571672
000110 53 93 94 3c 8b e1 bb 3a 95 ed 3c bb 41 21 9b bc
       0.018136656 0.0014334185 -0.0028828133 -0.018936755
000120 16 8a 86 bc 4d 54 1d 3c 38 c0 04 bd 98 9c 06 bd
       -0.016423266 0.009602618 -0.032409877 -0.032864183
000130 81 76 80 3a fb 24 c2 bc f0 03 7b 3c c0 6b e9 3b
       0.0009800942 -0.023699274 0.015320763 0.0071234405
000140 f3 f1 6f 3c 72 df 87 bc 64 b4 0d bb 1b 69 b8 bb
       0.0146450875 -0.01658604 -0.0021622414 -0.005627764
000150 f9 99 9a bc f2 e5 8e bc 71 d8 98 3b a5 72 a1 bb
       -0.018872248 -0.01744363 0.0046644737 -0.004926997
000160 d0 96 46 bc 31 b1 5b bb ca 26 6f bc 03 67 82 3c
       -0.012120917 -0.0033522362 -0.01459665 0.01591826
000170 39 d8 ba 3c 53 44 4f bb fb 4f 35 3c 34 72 7b 3c
       0.022808181 -0.0031626418 0.011066432 0.015347052
000180 bd 74 18 3c 43 43 e5 bb 34 9a 8a 3c a9 31 78 3c
       0.009305176 -0.0069965436 0.016919233 0.015148559
000190 36 e7 fb bc 74 74 14 bc 55 c8 39 ba 24 91 87 ba
       -0.030749898 -0.009060968 -0.0007087042 -0.0010342938
0001a0 bb 38 2e bc 98 e6 9a bc 24 42 c7 bc 24 13 97 ba
       -0.010633643 -0.018908784 -0.02432353 -0.001152609
0001b0 e0 be 1f bb 5f 59 69 b8 dd 0e 84 bc 0d 6c 5b 3c
       -0.0024375245 -5.5634762e-05 -0.016120369 0.0133924605
0001c0 e0 97 e5 bb 21 99 a4 3b 03 fe e7 bb 6a c7 19 bc
       -0.0070066303 0.005023137 -0.007079841 -0.009385923
0001d0 5a 90 96 bc 08 3d 9b bc 32 46 27 3c 21 8b c6 3b
       -0.018379379 -0.01895 0.010209607 0.006059066
0001e0 ad 39 5c 3c 34 d4 86 bb 78 91 f9 bc 95 f0 6d 3c
       0.013441485 -0.004114652 -0.030464873 0.014522691
0001f0 e2 97 2f 3c 97 55 8d bc d7 85 09 38 5e ee ba bc
       0.010717364 -0.017252726 3.2787993e-05 -0.02281874
000200 fd f9 8e b9 3d 3e 8e bc bb de 4a 3c 46 11 c1 bc
       -0.00027270606 -0.017363662 0.012382205 -0.023567807
000210 46 7b a7 bc f3 ed 90 3b fd a7 b0 3c 12 3a d9 bc
       -0.020444524 0.004422897 0.021564478 -0.026516948
000220 29 d9 e4 3b 03 3c c2 bc 73 72 d5 3c 8b 06 eb bc
       0.0069838953 -0.023710256 0.02605555 -0.028689643
000230 df 25 ad 3a 2e 34 d7 bc 0d e7 b2 bc 57 ac 94 39
       0.0013210139 -0.026269998 -0.02183869 0.00028357163
000240 17 85 f2 3a 21 59 d5 bc 1f bf 17 3a ac bf 40 bc
       0.0018502799 -0.026043477 0.0005788672 -0.011764448
000250 00 56 88 3b 1f 52 72 3a 98 c2 0f 3c 1a df 47 3c
       0.0041606426 0.00092438044 0.008774422 0.012199188
000260 a8 0b c6 bb ed 2c 26 bb f7 9b 32 bc b6 64 cb bc
       -0.00604387 -0.0025356368 -0.010901443 -0.024828296
000270 fa 01 62 3b ae df d8 3c 2e 00 b6 bc 26 ae 0b 3c
       0.0034486041 0.026473846 -0.022216883 0.008525407
000280 9a 69 9d 3c ad d2 3a 3b 8e 32 f4 3b 59 65 88 3c
       0.019215394 0.002850692 0.0074523157 0.016649889
000290 da 6a 6a 3c 7f fd 32 bc db 53 a5 bc 50 eb ea 39
       0.014307702 -0.010924696 -0.020181587 0.0004480728
0002a0 9d ca 5d bb 9a 42 1b 3c 4c ba 7a bc 26 e7 a4 3c
       -0.003384269 0.009476328 -0.015303206 0.020129751
0002b0 7b 65 84 ba 79 a8 18 bc 92 06 e1 bb ff a2 62 bb
       -0.0010101044 -0.009317511 -0.0068672383 -0.0034582017
0002c0 57 74 67 3c ed 41 77 3b 2b 11 ca bc 22 10 6f bc
       0.014126859 0.0037728504 -0.02466639 -0.014591249
0002d0 a9 1f e8 3a 6f 85 25 3c 81 83 2a bc d4 30 a1 bc
       0.0017709631 0.010102614 -0.01040733 -0.019676603
0002e0 85 00 19 3b 82 91 62 bb 50 a4 48 3c 0e 5e d9 bc
       0.0023346257 -0.0034571593 0.012246206 -0.026534107
0002f0 d4 75 4b bc 69 38 b5 bb 1a e7 61 bc 22 a5 7a 3c
       -0.012418229 -0.0055304063 -0.013788009 0.01529816
000300 33 74 8b bc cd 64 ab bc 38 70 d1 bc 9b c9 94 3c
       -0.017023182 -0.020922089 -0.025566205 0.01816254
000310 d5 3c c8 bc 57 8b 7b 3c 1d 2b 10 bd c6 4c 93 3c
       -0.02444307 0.015353045 -0.035197366 0.017980944
000320 9c 4e a6 bc e6 6d ad 3a e3 5e a6 3c fa 65 4b 3c
       -0.020301156 0.0013231605 0.020308917 0.01241445
000330 46 e2 70 bc e7 59 99 3c 56 bc ca bc b0 6e 2f bc
       -0.014702385 0.018719627 -0.024748009 -0.010707542
000340 b4 5b c0 3c 33 f7 06 3c ae a9 a5 bb 95 a0 94 bc
       0.023481227 0.008237648 -0.005055628 -0.018142978
000350 62 d0 35 3c e4 eb a9 3b 4d 25 47 bc 82 cb 03 3c
       0.011097046 0.005185591 -0.012154889 0.0080441255
000360 42 51 17 3c 97 a4 2b 3c a1 b3 ac 3c d4 ee 40 bc
       0.009235682 0.010476253 0.021081747 -0.011775691
000370 53 58 aa bc 78 29 b4 3b be 36 c1 bc 81 b6 19 bb
       -0.02079407 0.0054981075 -0.023585673 -0.0023454728
000380 37 33 d3 bc 6a f4 8a 3c da 15 98 bc 0e 47 00 3c
       -0.025781257 0.016962249 -0.018565107 0.007829441
000390 60 5b 3f bb ba 74 64 3c 68 ca 8d bc d4 d3 2c 3b
       -0.002919875 0.013943845 -0.017308429 0.0026371377
0003a0 5f fa e6 3b 53 88 2c bc 90 57 44 bb be c1 60 3c
       0.0070488895 -0.010530549 -0.0029959418 0.013718067
0003b0 f1 31 f0 b5 a9 b4 8f 3c df 8b 04 3c 55 85 f7 3b
       -1.7895928e-06 0.0175422 0.0080899885 0.007553736
0003c0 74 09 f1 bc c0 dc ed bb 3a a1 9c bc ba 40 af bc
       -0.029423453 -0.0072589815 -0.019119848 -0.021393169
0003d0 aa 46 ab 3c 27 d5 ad bc d3 02 cc ba b5 1f ee bb
       0.020907719 -0.021219803 -0.0015564807 -0.0072669634
0003e0 2d 03 82 ba 45 5c 5d 3c 49 94 d9 bb 00 0b 2c bc
       -0.0009919159 0.013510768 -0.0066399914 -0.0105006695
0003f0 5d cc 3b 3b e1 d9 8a bb 96 e1 5e 3c 52 7a c0 bc
       0.0028655746 -0.004237399 0.013603589 -0.023495827

fc1.bias f4 [120]
000000 de af 80 3b a4 66 56 bc 1e 18 eb bd 84 92 47 3c
       0.003927215 -0.013085995 -0.11479209 0.012180928
000010 57 4b b1 3b 63 20 dd bc 74 9a 12 3e 47 cf 06 3e
       0.0054105925 -0.026992982 0.14316732 0.13165008
000020 77 09 ce 3c f4 99 79 3b 62 6a 18 bb 54 48 06 bd
       0.025150998 0.0038086148 -0.0023256768 -0.03278382
000030 ce a8 2e b9 55 e5 0c bd 4b b1 cc bc 3e 9d 68 3d
       -0.00016656818 -0.034398396 -0.024986884 0.056790583
000040 75 a7 b9 bc c6 57 07 bd 25 f6 7c 3c 5b 74 94 3c
       -0.022662858 -0.03304269 0.015439545 0.018121889
000050 25 dd bd bc ee 5c b7 bc 10 7a 3b 3c 1a a1 c4 3d
       -0.023176739 -0.02238318 0.011442676 0.0960104
000060 da e0 00 3c e9 c7 c6 ba 36 e6 51 3c 94 22 ff 3d
       0.007866109 -0.0015165779 0.012811234 0.12457767
000070 30 fe 06 3e 74 2f f3 3d 30 96 9b 3c 29 2d 1e bd
       0.13182902 0.11874285 0.018992513 -0.038617287
000080 9f 4f d2 3d a5 41 a9 3d a6 97 30 bc eb 04 92 bc
       0.10269093 0.08264474 -0.010778343 -0.01782461
000090 8b 87 fe 3b ea 23 97 3c c5 7b 62 3d 93 e1 5f 3d
       0.007767623 0.018449742 0.055293817 0.054658484
0000a0 3a 44 bc bc d1 39 90 bd 8a 78 da 3b 3b 50 b1 3c
       -0.022981752 -0.070422776 0.0066672014 0.021644702
0000b0 16 98 63 bc 7b 09 13 3d eb d5 81 ba 56 50 0f 3d
       -0.013891241 0.035897713 -0.0009905671 0.034988724
0000c0 85 4a 96 bc a9 40 8b bc 3b 93 a5 3d 6a ac 9f bc
       -0.01834608 -0.016998606 0.080847226 -0.019491393
0000d0 0f 20 4a bc b7 65 64 bc c2 f8 be bb f6 0b 77 3d
       -0.012336745 -0.013940266 -0.005827994 0.06031414
0000e0 3c 4a 3f bd 3e e6 da bc 53 83 9a bd c9 42 e9 3b
       -0.046701655 -0.026721116 -0.07544579 0.007118557
0000f0 9d 28 f6 bc 8c ef 20 3c 88 97 be bb 58 81 1e 3e
       -0.030048663 0.009822737 -0.005816404 0.15479028
000100 17 b5 0b 3c 12 97 08 3e a5 04 b4 bc 27 04 1e bd
       0.008527062 0.13338879 -0.021974871 -0.03857818
000110 b2 b8 5b bd 76 e3 64 bc 67 cb 96 3d df 12 b1 3d
       -0.053642936 -0.013970247 0.07363015 0.086461775
000120 44 68 04 bd 97 6c fb bb 66 28 71 3c dc 65 0b 3e
       -0.032325998 -0.007672857 0.014719104 0.13613075
000130 34 32 18 3e 19 8d 2b bc 98 c1 33 bd 73 24 88 3d
       0.14862901 -0.010470652 -0.043885797 0.06647577
000140 5a c9 33 3c e8 b8 d2 3d 67 42 3a bc eb 7d 1b 3d
       0.010973299 0.10289174 -0.011368371 0.03796188
000150 30 ab 4f bd 04 e6 7c bd 58 27 e5 bc ff ae 3d bd
       -0.050700366 -0.061742797 -0.027972862 -0.046309467
000160 1d 2d 35 bd d6 c9 cf 3d 9b f6 37 3b 16 41 46 bd
       -0.044232477 0.10145919 0.0028070572 -0.048401915
000170 6d cb 92 3d e0 8f e6 bb 4e 66 9b 3b 73 6f c3 bc
       0.07167707 -0.007036194 0.0047424203 -0.023856854
000180 98 50 42 3d f9 7c 11 3e 6d e0 2b 3c 59 ef 79 bd
       0.04744014 0.1420783 0.010490519 -0.061019275
000190 18 6a 0f bd d2 14 03 bc f6 9c ca bc aa ab be 3d
       -0.03501329 -0.008000569 -0.024733048 0.09310086
0001a0 bb ef 0d bd 07 48 c2 3d 7e b0 40 bb 9e f9 5c 3e
       -0.034652453 0.094863944 -0.0029402073 0.21579596
0001b0 93 80 f1 bc ec 9d 5c bd 2c bb 86 3a 37 4b 90 3d
       -0.029480254 -0.053861544 0.001027917 0.07045596
0001c0 45 18 4a bd 43 8f 9b bc ff 3b 5f 3d 70 b9 0d bd
       -0.04933955 -0.018989211 0.054500576 -0.034600675
0001d0 1e b1 5c 3d 18 30 a6 3c ad 89 c7 3d ae 32 8b 3d
       0.05387985 0.020286605 0.097430564 0.06796776

fc2.weight f4 [84, 120]
000000 f4 90 be 3c b2 3e ee 3b f4 61 fd 3d 8c 19 53 bd
       0.023262478 0.0072706575 0.12372199 -0.051538035
000010 6d ac 25 bd 26 2e b8 3d 75 aa 8d bd 46 9e 97 3d
       -0.04044764 0.08993177 -0.06917278 0.07403235
000020 01 b2 20 3e 37 fe 72 bb d4 f7 66 bc 2d 6c e7 3c
       0.15692903 -0.0037077793 -0.014097173 0.028249824
000030 da 98 30 bd 61 6e 2a bd 27 d0 b8 bc 4d da 23 bd
       -0.04311452 -0.04160917 -0.022560192 -0.04000311
000040 fe f8 7e 3d 10 31 43 3d d9 c1 6a bd 5c 70 55 3d
       0.062249176 0.04765421 -0.057313774 0.052109107
000050 22 c1 b0 bc 75 e1 9e 3d d4 ef 4f bc f6 29 e7 3a
       -0.021576468 0.07757846 -0.012691457 0.0017636407
000060 34 08 c8 3d eb df 37 bd e9 69 38 bd 0d de 6c bc
       0.097671896 -0.04489128 -0.04502288 -0.014457238
000070 19 41 18 be 7d 3f 63 3c ad b7 c8 3d 1d df 53 be
       -0.14868583 0.013870117 0.098006584 -0.2069058
000080 a8 a4 86 3d 90 9d de 3d 0b 0a 5d bc d9 0e aa 3d
       0.065743744 0.108698964 -0.013491164 0.08303613
000090 9a 3b 10 3b 4e 80 3c 3d b2 9e 94 bd c2 f4 5c 3d
       0.0022008182 0.0460208 -0.07256831 0.053944357
0000a0 bb 23 83 3c f3 40 8d 3e f4 0e 27 bd 5e 5c 80 3c
       0.016008249 0.27588615 -0.040785745 0.015669044
0000b0 4e bf 7d bd 91 2f 11 3f 48 60 b2 bd 40 62 83 3e
       -0.06195002 0.56713206 -0.087097704 0.25660896
0000c0 fa 4b ab 3c dd a7 b9 bd 91 3f 9c 3d c5 f6 82 3e
       0.020910252 -0.090652205 0.07629312 0.25578895
0000d0 45 51 86 bd ab 43 85 3d ca b1 6d 3c 72 21 f1 bd
       -0.0655847 0.06507047 0.01450772 -0.11773957
0000e0 9e fd 89 3d 10 35 65 bd f5 1a 9c bc 31 f0 6c bd
       0.06737827 -0.055958807 -0.019055823 -0.057846252
0000f0 9f 00 c5 3d d2 ec 89 3c 4d 8c a5 3c 5e 3f e0 be
       0.09619259 0.016836558 0.020208502 -0.43798345
000100 e6 ce 87 3b 1b e1 27 3e 78 e3 98 bd 7b 07 3f 3d
       0.0041445373 0.16394465 -0.07465261 0.046637993
000110 58 99 b0 bd c8 e5 e4 bd d7 3b a0 bd d6 80 6a 3d
       -0.08622998 -0.1117664 -0.078239135 0.057251774
000120 18 16 39 bd ad e0 a4 3d c6 07 90 bd 5f 32 aa 3e
       -0.045187086 0.08050666 -0.07032733 0.33241555
000130 22 b6 b8 be 60 d2 84 3d 9c 16 28 3e a1 56 35 3e
       -0.36076456 0.06485438 0.16414875 0.17708828
000140 b4 96 b2 3d 90 88 94 be 6d e4 86 bd c7 f5 98 bd
       0.087201506 -0.2901044 -0.065865375 -0.07468753
000150 8e a5 76 3e 1f 99 67 bd 62 77 da 3d 49 5b a4 3e
       0.24086592 -0.056542512 0.10667302 0.32100895
000160 2a e7 d8 bd 10 25 c8 be 17 1b 9b 3d 0d 67 1c bd
       -0.10590966 -0.39090776 0.07573526 -0.038184214
000170 d4 88 3e be cc 70 82 3d 01 ae 43 bc b4 89 a3 bd
       -0.18606883 0.063691705 -0.011943341 -0.07985249
000180 c9 e4 8a be 93 43 b4 3c 10 df 1b bd fb 4d 60 3e
       -0.27127674 0.022004878 -0.038054526 0.21904747
000190 c3 6c 34 3d b4 79 03 3c 00 12 1a bd da fa 12 3e
       0.044049036 0.008024622 -0.037614822 0.14353505
0001a0 09 9f ad 3c d4 f1 9d bd bd 89 63 3d b3 2e 09 be
       0.021193998 -0.07712141 0.05555128 -0.1339672
0001b0 77 42 3f 3d f7 d4 e3 3c c3 61 42 bd 76 ce 5f be
       0.046694245 0.02781151 -0.047456514 -0.21856102
0001c0 32 42 d6 3d 4e e0 68 bd e9 e6 06 bd b5 9f 80 be
       0.104618445 -0.05685454 -0.032935057 -0.25121847
0001d0 12 21 8d 3c fe 43 86 bd 6f 4c 5f 3e d5 f7 f6 bc
       0.017227683 -0.06555937 0.21806501 -0.030147472
0001e0 40 63 20 bd a8 94 d7 bc 1e 74 58 3d f9 6b 89 3d
       -0.039157152 -0.026316002 0.052845113 0.06710047
0001f0 d2 d3 76 3d ed 93 22 3d 90 4b 68 bc d8 7d 6f bd
       0.0602606 0.039691854 -0.014178172 -0.058469623
000200 ab 14 23 3c 57 c4 8b bd e0 bd ae bd 16 be 69 3d
       0.009953658 -0.06824558 -0.085323095 0.057066046
000210 d9 b0 a1 3d 6c b7 8c bd b3 62 9a bd 2b 22 64 3e
       0.07895059 -0.068709224 -0.07538357 0.22278659
000220 be 84 20 3e ad 8d 35 bd 00 28 b2 bd 4f 6c b8 bd
       0.15675637 -0.044324566 -0.08699036 -0.09005033
000230 84 c5 8b bd 56 2b 79 3d 24 e5 1b bd cf 0a 47 3e
       -0.068247825 0.060832344 -0.038060322 0.19437717
000240 9a 95 92 3d 3a d9 21 3d cf 6e 7d 3d 80 c5 35 bd
       0.071574405 0.039513804 0.061873253 -0.044377804
000250 c3 3d 95 bd b8 0c 1c 3e 6e 4e db 3d 0d 4c b6 bd
       -0.07287171 0.15239227 0.10708319 -0.08901224
000260 c7 f4 e8 bd 73 3b 72 3e 4c e8 d2 b9 b8 70 66 3d
       -0.113748126 0.2365549 -0.00040227396 0.05625984
000270 f3 f5 70 3d 96 06 a6 bd 65 58 37 be c7 69 c2 3d
       0.058828305 -0.08106725 -0.17904814 0.09492832
000280 57 15 7b 3d 9e 75 d0 bd 54 18 b9 3c 7c b6 ad bc
       0.061299648 -0.10178684 0.022594608 -0.02120518
000290 14 76 a2 3d 85 97 0b 3e e0 b3 86 be 67 61 0b be
       0.07932678 0.13632019 -0.2630911 -0.13611375
0002a0 6b bc 1f bd 37 77 6a 3d d5 c9 9b bd f7 84 73 be
       -0.03899805 0.0572426 -0.07606856 -0.23781191
0002b0 41 53 da bb 40 33 7f 3c 8a 4e 94 bd 0a 95 22 3e
       -0.0066627567 0.015576184 -0.07241543 0.15877166
0002c0 48 42 e8 3d 90 24 3b 3c 7b e0 99 3d aa a3 76 3d
       0.11340767 0.011422291 0.075135194 0.060214676
0002d0 3b 1d 81 be f4 86 36 bd 05 6d 09 3e a4 32 55 3e
       -0.25217614 -0.044562295 0.13420494 0.20820099
0002e0 7f 4b 9c 3d 38 60 b5 bc 89 11 6e bd 23 1d d5 bc
       0.07631587 -0.022140607 -0.05812219 -0.02601487
0002f0 12 e0 c8 bd d4 26 a0 3e 0c d4 20 3d 6d f6 d3 3d
       -0.09808363 0.31279624 0.039264724 0.10349736
000300 90 64 69 3d 47 28 3a 3d 57 91 ec 3c 27 1b 68 3e
       0.05698067 0.045448568 0.028877897 0.22666608
000310 c2 94 ed bc df 9e b8 3d 0d 24 95 3e 54 40 8c bd
       -0.029001597 0.09014677 0.29129067 -0.06848207
000320 b8 0a 43 3d 22 8c a4 3d 84 2f ec bb 82 a0 68 be
       0.047617644 0.08034541 -0.0072078127 -0.22717479
000330 cb 7b a6 3e 37 2c 32 3e 61 dc 5f 3d 15 ce 30 3e
       0.32516322 0.17399679 0.05465353 0.17266114
000340 3b 61 e7 bd 98 50 b4 bd a4 51 24 bb d2 df 7a 3e
       -0.11297842 -0.088044345 -0.0025073076 0.24499443
000350 f3 f7 31 be 21 3f 81 bd de 09 9e 3c fa 92 99 3b
       -0.17379741 -0.06310869 0.019291814 0.0046867104
000360 99 7f b8 3c c4 5f 59 bd 3a a6 01 bd 20 57 28 3d
       0.02252178 -0.053069845 -0.031652667 0.041098714
000370 7a f1 e0 bc 10 23 b8 bd da b2 95 3d 5c 0b 62 be
       -0.027458895 -0.08991063 0.07309504 -0.22074646
000380 15 81 a6 3d 8b c5 3a 3b 15 76 8e 3c 99 bc a0 3d
       0.08130089 0.0028499092 0.01739029 0.07848472
000390 05 2e 69 bd 2d b1 d3 bb 28 ae 11 3c 8c c7 ad bc
       -0.056928653 -0.00646033 0.00889162 -0.021213315
0003a0 df e4 4e 3d bc 7f 07 bd 57 63 64 3e 7a 43 27 3e
       0.050511237 -0.0330808 0.2230352 0.16334334
0003b0 f9 53 27 bd b4 92 4b bb df bf c1 bd 85 9b b9 3e
       -0.040851567 -0.0031062784 -0.09460425 0.36251464
0003c0 7d c7 19 bd 27 bd cb 3c d2 04 f9 bc fd 86 9b 3d
       -0.037543762 0.024870468 -0.030397806 0.07594106
0003d0 60 4a a7 bb 4a 88 37 be da 8f 88 3d 6c 98 9a 3b
       -0.0051053017 -0.17923084 0.066680625 0.004717877
0003e0 b3 1c d3 bc 0e 06 ba bc ed 0f 61 bd 21 1a c4 bd
       -0.02577052 -0.022707965 -0.05494683 -0.09575296
0003f0 e1 b5 0d bd 9c f1 52 3b 0b a6 58 bd bf b9 36 3e
       -0.03459728 0.0032187467 -0.052892726 0.17844294

fc2.bias f4 [84]
000000 25 63 13 3b ee e7 0e 3d 82 cb e2 3d 0e 0f 24 bd
       0.0022489515 0.034889154 0.11073972 -0.04005342
000010 10 95 d4 3b d8 16 3f 3d 29 8d 53 bc 58 70 69 3e
       0.006487496 0.046652645 -0.012912073 0.22796762
000020 22 30 e0 bd 4d bb 1c be 5f bf 3a 3e 07 66 f7 3c
       -0.109466806 -0.15305825 0.18237065 0.030200018
000030 54 e5 d0 3b 25 6d 8f 3c 0e f9 0a 3e 59 c2 13 3d
       0.0063749943 0.017508099 0.1357157 0.036074016
000040 58 76 68 3e 6a ab 99 3d 77 84 ab 3d 22 ab 4c bd
       0.22701395 0.07503398 0.08374875 -0.049967892
000050 51 65 76 3e b7 2b a1 bd 9e 0a f3 3c 22 21 e8 bd
       0.24062087 -0.07869666 0.029668149 -0.113344446
000060 5f 5e 2d 3e 2a 70 91 bd ae 30 0d bd 88 46 1f 3d
       0.16930531 -0.07101472 -0.034470253 0.038885623
000070 a2 6f 16 bd 4c 75 c7 3d 67 11 06 be f5 a5 3c bd
       -0.036727555 0.097391695 -0.13092576 -0.046056706
000080 5a 2e 65 bd 2c 5c de 3c fb 5f cc 3d c4 aa 3d 3e
       -0.055952407 0.02714356 0.09979244 0.18522173
000090 6b 8c 98 3d 4b d7 0e 3e 87 86 76 bd a7 03 2a 3e
       0.074486576 0.13949315 -0.06018689 0.16602956
0000a0 00 66 5b 3d 23 78 c5 3d 23 0f 8c 3c 4d d8 b2 bc
       0.05356407 0.09642055 0.017097061 -0.021831656
0000b0 b2 b9 c1 3d 98 df 06 3e ad b2 83 bd 70 af b0 bc
       0.09459247 0.13171232 -0.06430564 -0.02156803
0000c0 37 f0 11 be e9 01 4b 3d 03 29 40 3d ce 05 89 bd
       -0.14251791 0.04956237 0.04691411 -0.0669056
0000d0 e7 e9 e8 3d 42 be 02 3c fc 39 79 3e f0 32 fb bb
       0.11372738 0.007979931 0.24338526 -0.0076659843
0000e0 35 15 93 3d a4 69 00 be 91 30 4e 3e e1 9e 9d 3d
       0.07181779 -0.12540299 0.20135714 0.07696319
0000f0 e6 1b 83 3d b3 6b 46 be 8a 4f fc 3d 84 d8 14 3e
       0.064018056 -0.19377021 0.12319858 0.14535719
000100 20 3f 76 3e 07 af 82 3c 8e 7e f7 bb c9 1e 99 3d
       0.24047518 0.0159526 -0.0075529283 0.07476575
000110 ef 2d cf bd 91 43 64 3b c5 07 ec 3c 84 a8 ea bd
       -0.10116183 0.0034830312 0.028812299 -0.11457923
000120 43 6a f0 3d 08 76 7c bd 9a 31 a3 3d 7d 1a 14 be
       0.11739018 -0.061636 0.07968445 -0.1446323
000130 41 8e 6f bb 65 e0 07 3d 12 b6 f5 3d 3e 63 18 3e
       -0.0036553296 0.033172984 0.11997618 0.14881608
000140 2f a2 d3 bd 3d 84 7b 3d 42 c0 c4 3d 0c 1a 78 3d
       -0.103336684 0.06140541 0.09606983 0.060571715

fc3.weight f4 [7, 84]
000000 1d bc 97 3e a3 32 0d 3e 86 79 36 bd 14 51 0d 3e
       0.29635707 0.13788848 -0.044549488 0.1380046
000010 c9 c8 de be 1e c8 0f 3d 7a 9a f7 bd a5 3b ec 3c
       -0.43512562 0.035102956 -0.12090011 0.028837034
000020 81 ac 84 3e 9f 8b d6 bd 39 f6 25 be fb 3f a6 be
       0.2591286 -0.10475849 -0.16207208 -0.32470688
000030 bb c3 ad be 20 98 5e 3e a9 b1 3c 3e 09 16 e3 be
       -0.33938393 0.21737719 0.18427147 -0.4435275
000040 e6 18 bf be 04 92 4e be 33 d5 2e be a3 7d 34 be
       -0.37323684 -0.20172888 -0.17073517 -0.17626052
000050 a1 54 5d be c8 a0 bd bd a3 2c 2c 3d b6 73 e0 bd
       -0.21614315 -0.09259182 0.042034756 -0.1095957
000060 d4 27 16 be 21 9a 6f be db c0 a2 bd 80 ef 91 3d
       -0.1466363 -0.2339864 -0.079469405 0.07125759
000070 34 81 67 be 7a 61 23 bd 75 2a 08 bf 1d 19 85 3e
       -0.22607881 -0.039887883 -0.53189784 0.25995722
000080 f7 92 84 be 52 58 69 be e6 00 b1 bd 95 61 c7 be
       -0.25893375 -0.22787598 -0.086427495 -0.38941637
000090 3d 8d a5 bd e8 b3 db be 08 5d b6 3e 4f eb e0 bd
       -0.0808358 -0.42910695 0.35617852 -0.109823816
0000a0 c0 9c 56 be 94 d3 62 be 79 0c a0 bd f8 c5 11 be
       -0.20958233 -0.22151023 -0.07814879 -0.14235675
0000b0 75 a6 5a be 2e d7 8f 3d 58 3d 13 3f fa 3e f8 bc
       -0.21352561 0.07023464 0.5751548 -0.030303467
0000c0 dc ab 4b bd e8 a8 bb 3d e0 c4 28 be cf d6 f1 3e
       -0.049724445 0.09163076 -0.16481352 0.47234198
0000d0 38 ca 93 3d fe 85 a9 3e 53 f9 8b 3d 30 f7 57 3e
       0.072163045 0.3311004 0.06834664 0.21090388
0000e0 17 07 8f be aa 56 42 bd b8 12 0e 3d 95 8c 37 be
       -0.27935097 -0.04744593 0.03468582 -0.17924722
0000f0 7b 67 4c be 88 ba 03 3f e4 17 a4 be a2 dc 5c 3e
       -0.1996135 0.514565 -0.32049477 0.2156854
000100 1f 15 99 3c c0 7a ba 3e 5d 4e 90 be a6 fc 40 3e
       0.01868683 0.36421776 -0.28184786 0.18846378
000110 77 50 0d be 7f 6a 92 3e f7 0e a4 3d 05 a4 1c 3e
       -0.13800226 0.28596875 0.08010667 0.15296943
000120 86 06 41 be 92 68 c2 3d 62 cb 2e bf b2 a3 bf bd
       -0.18850145 0.094926015 -0.6827909 -0.09357394
000130 b4 1a 11 3b e4 44 82 3e f4 81 19 3d a6 f7 16 bf
       0.002214116 0.25443184 0.03747745 -0.5897163
000140 ac de bc bc c6 c5 70 be 66 01 3d 3d 22 f0 c6 3c
       -0.023055397 -0.23512945 0.04614391 0.024284426
000150 01 e3 fd be 23 39 ac 3e b7 87 09 be 86 b5 04 bf
       -0.49587253 0.33637342 -0.13430677 -0.5183948
000160 17 a9 19 be 8e 0b 07 3a 8d 52 e5 be a8 20 1a 3f
       -0.15005909 0.0005151563 -0.44789544 0.6020608
000170 f8 e9 f9 bd 50 6e f8 bd e1 07 e3 3e 4b 4a 6b 3d
       -0.12202829 -0.121304154 0.4434195 0.0574439
000180 f3 ec c0 be 45 59 05 3d 50 d0 93 bd 93 57 c4 bd
       -0.37680778 0.032555837 -0.07217467 -0.09587016
000190 1e a4 9a 3e 9a 30 2c 3e 56 1c bc be f6 06 29 3e
       0.30203336 0.16815415 -0.3674037 0.16506562
0001a0 c5 3b 35 3e 85 22 01 be 29 d1 a4 be 13 f1 52 3d
       0.17698582 -0.12610824 -0.32190827 0.051499438
0001b0 2d f3 8c be 43 c8 f1 3c 94 8a 5e be f4 58 18 be
       -0.27529278 0.029514438 -0.21732551 -0.14877683
0001c0 a2 1e b9 be 3c 07 2d bf d8 fd b6 bc c9 05 85 3e
       -0.36156183 -0.67589164 -0.022337839 0.25980976
0001d0 7e b5 66 3d af 3b ba be 0b 1b 13 bf 99 f3 0f bd
       0.05632543 -0.3637366 -0.5746314 -0.035144422
0001e0 5f 50 4b bf 1a 49 40 3e 45 3c bb 3d bd 8f 05 be
       -0.7941951 0.18777886 0.09142355 -0.13043113
0001f0 19 bd 34 be 27 ac b1 bd 7b 91 38 be 26 91 da 3d
       -0.1765026 -0.086754136 -0.18024246 0.10672216
000200 ff ac d5 be 03 35 f0 be 34 0f e8 bd 86 41 29 bc
       -0.41733548 -0.46915445 -0.11331025 -0.010330563
000210 ee 8d 5f 3d 99 52 44 3e 64 02 57 be 63 76 9b 3c
       0.054578714 0.19172134 -0.20997006 0.01897735
000220 07 26 2c bf 53 d6 03 bd 34 c5 bc 3e 3d a4 32 be
       -0.67245525 -0.032186817 0.36869204 -0.17445464
000230 18 e5 95 be 6c 3c b1 bd 6e ab fa be d8 ec 26 bf
       -0.29276347 -0.08654103 -0.48958915 -0.65205145
000240 31 9b 96 bd 9a b1 5e be 83 6a 1c 3f c1 ad 5d 3d
       -0.07353819 -0.21747437 0.61100024 0.054120783
000250 60 bc 29 be 9f b4 04 3f 3b 58 6e 3c 38 15 0b bb
       -0.16575766 0.51838106 0.014547403 -0.0021222364
000260 bb 20 fb be bb 1b 4a be 99 13 07 bf a3 9c bd be
       -0.4904841 -0.19737141 -0.5276428 -0.37033567
000270 d4 44 21 be 15 2d 3c bd b3 10 52 3e dc f4 b4 bd
       -0.15748912 -0.04594143 0.20514183 -0.08835766
000280 15 2f 5c be 2c e2 f5 be ec c0 9f bd 43 df 64 3e
       -0.21502335 -0.48024118 -0.07800469 0.22350793
000290 66 a5 a4 be 78 ca af be ae de 2b bf ba 8d 9c 3d
       -0.3215744 -0.3433416 -0.6713666 0.0764422
0002a0 c0 7a b9 bd 36 9d b1 bc 88 2e 08 3b 64 6e 91 be
       -0.09056616 -0.02168141 0.0020779688 -0.28404534
0002b0 63 29 52 be df 4e 87 bd fb 28 61 3e b4 8f 3b 3d
       -0.205236 -0.0660684 0.21988289 0.045791343
0002c0 33 0f 27 be e8 80 f7 bd be 22 a4 bc 72 b3 a5 be
       -0.16314392 -0.12085134 -0.020036098 -0.32363468
0002d0 8b 4f 73 be c8 6f c1 be 85 3d 8b 3e 02 d0 0f 3e
       -0.23760812 -0.37780595 0.27195373 0.14044192
0002e0 b6 d0 44 3d 3d 77 87 3e b5 27 d6 bd 11 1f d7 be
       0.048050605 0.2645816 -0.10456792 -0.4201589
0002f0 60 ca 8b be fd b4 cb bd 50 1c ce be 93 06 bf bd
       -0.27302837 -0.0994663 -0.40255976 -0.09327426
000300 ca 6d 63 be 79 94 76 3e 44 b5 6b bd 07 34 6c bd
       -0.2220985 0.24080075 -0.057545915 -0.057666805
000310 2f 00 35 be af e1 a1 3d 78 aa 2e be fa 91 d1 3d
       -0.17675851 0.07904374 -0.17057216 0.10232921
000320 9b 69 7c 3e 08 36 ab be 92 ad f6 bd 70 bb 0a 3d
       0.2464966 -0.3343966 -0.12044825 0.03387016
000330 70 d7 50 3e 42 5f 1d be 35 b2 2b be 1b ee 8c be
       0.20394683 -0.15368369 -0.167672 -0.2752541
000340 68 b0 fb 3d 84 b4 ad be c9 0d 45 3e 91 b1 79 bd
       0.12289506 -0.33926785 0.1924354 -0.060960356
000350 df 1d 9c be 3b 1e e5 bd 9d c5 50 3d 7b 2f 31 be
       -0.3049154 -0.11187407 0.05096971 -0.17303269
000360 a4 17 88 bd 6a 8a a9 be d7 03 d2 3d b0 72 00 bf
       -0.06645134 -0.33113414 0.10254639 -0.50175
000370 3e 97 a3 be 6c d8 e7 bc 8f 91 17 bf 33 d1 39 3c
       -0.31951326 -0.02830144 -0.5920648 0.011341381
000380 14 c5 17 3e 21 7f c5 bc f7 4c b1 3d c9 9e 94 3e
       0.14821273 -0.024108471 0.08657258 0.29027393
000390 c5 7d 16 be 6b 54 9c be ea cb 86 be ee 74 84 bc
       -0.14696415 -0.30533156 -0.2632745 -0.016169038
0003a0 41 1e 3f 3e 40 aa 46 3e 17 07 9a 3e 4a 75 41 3d
       0.18663885 0.19400883 0.30083534 0.047230996
0003b0 8d da 7e be e7 5a 9c 3d 44 23 2b 3d 92 87 3d be
       -0.24888058 0.07634526 0.04178168 -0.18508747
0003c0 b4 d7 d5 3d 4a cd f3 bc af 26 2c be 4e 9b aa 3d
       0.10441533 -0.029760975 -0.16811632 0.08330403
0003d0 5c 97 c3 bc c7 d9 f3 3e 91 74 91 3b 5d b4 af bd
       -0.023875885 0.47627088 0.0044389446 -0.085793234
0003e0 dd 2c 46 be 5f 8a d6 3d 62 ee 93 be 94 0a e6 3e
       -0.19353051 0.10475611 -0.2889281 0.44929945
0003f0 fa b1 8e 3e 63 56 9c bd ba c3 23 bf a1 7f 52 3e
       0.2787016 -0.076336645 -0.6397053 0.20556499

fc3.bias f4 [7]
000000 78 8b 0c bd aa 2a c2 3d 00 0f 4a bd 3c ee 87 bd
       -0.034312695 0.09480794 -0.04933071 -0.066372365
000010 a2 74 ad bd 90 b8 c9 3c 61 ef a1 bd
       -0.084695116 0.02462414 -0.07906986
