models/emotion_net.pth (torch, 679877 bytes, 10 tensors)

conv1.weight f4 [6, 1, 5, 5]
000000 55 f9 27 be 57 d6 91 bf 91 75 3e bf 5d 47 0c 3f
       -0.16403706 -1.1393536 -0.7439814 0.5479639
000010 66 30 8b 3f 3b e0 a7 3d 08 3b b2 be cf 82 b8 bf
       1.0874145 0.081970654 -0.34810662 -1.441492
000020 5f de cc bf b5 7b d2 be b6 94 06 3f 7d c8 0b 3f
       -1.6005362 -0.41110006 0.52570665 0.54602796
000030 75 f9 92 3e ce fa 1d bf 5c 8d 30 bf 9c c9 b9 3e
       0.28705946 -0.6171082 -0.689657 0.36286628
000040 66 99 af 3e 84 13 78 3f ed 57 ca 3e 8a 64 26 3e
       0.3429672 0.9690478 0.39520207 0.1624929
000050 35 37 81 3e e5 d5 e0 3e d5 10 ed 3e c9 a6 0e 3e
       0.25237432 0.4391319 0.46301904 0.13930811
000060 47 cf d4 3d e7 08 6f 3f cd 74 f9 be cf 57 c2 be
       0.103910975 0.9337296 -0.48721924 -0.37957618
000070 29 e2 87 be 67 66 73 3e c5 ac 54 3e ce e9 fd bf
       -0.26539734 0.23769532 0.20769031 -1.9836977
000080 1b db 96 be a3 8d 6a 3e 3e 1e ae 3e 3b b1 ff bf
       -0.2946404 0.22905593 0.34007448 -1.9975961
000090 74 20 ae bf 62 92 8f 3f 40 cd fc 3e 6b 28 ac 3d
       -1.3603654 1.1216547 0.49375343 0.084061466
0000a0 2f 1e 5d bf 99 30 32 3f c9 03 4d 3f 8d 4e 96 3e
       -0.8637418 0.69605404 0.800839 0.29356804
0000b0 43 f3 28 3f b0 a8 4e bc 14 a1 1a 3f d6 fb 8f 3c
       0.6599619 -0.01261346 0.60402036 0.01757614
0000c0 84 eb a0 3d 53 d1 03 be bc 13 11 bf e9 d6 ca be
       0.07857421 -0.1287282 -0.5667074 -0.39617088
0000d0 40 45 1b bf f8 90 3f bf ed 3f 0a bf a9 5b 84 be
       -0.6065254 -0.7483058 -0.54003793 -0.2585118
0000e0 6c 70 1f 3e 04 ab 38 bd 79 12 57 3e ed 35 92 3e
       0.1557023 -0.04508497 0.2100314 0.28556767
0000f0 be 3b d8 be cf 9f f9 3e 01 ef 85 3e 7f fe 41 3e
       -0.4223308 0.48754737 0.26158908 0.18944739
000100 47 98 a3 3e e2 59 4a be 37 b5 15 3f c5 51 bf 3e
       0.31952116 -0.1976085 0.58479637 0.37367073
000110 73 40 16 3f e7 7a 5e 3f af 71 93 be b1 5a 93 3e
       0.5869209 0.86906284 -0.2879767 0.2878013
000120 16 f7 0e 3f ef b5 27 3f ab 2b fb 3e ba f8 c1 3d
       0.55845773 0.65511984 0.49056754 0.09471269
000130 79 0d 20 3f 89 b9 16 3f bd 43 3f 3e 95 43 09 be
       0.6252056 0.58876854 0.18678184 -0.13404687
000140 e1 56 23 bf c7 92 cf 3e 4d db b2 3e e7 2b f5 3e
       -0.6380444 0.4054167 0.34932938 0.47885057
000150 4b 61 54 3e ba 6c 1f bf 81 0f 67 3d 1d 84 dd 3d
       0.2074024 -0.6227528 0.05641127 0.10816214
000160 94 03 92 3e 92 a1 d3 3e 28 96 1f bf 05 ae c9 be
       0.28518355 0.41334206 -0.62338495 -0.3939058
000170 dd c3 84 3d 75 65 0f 3f ba c4 ba 3e 20 c6 a7 be
       0.064826705 0.56014186 0.36478215 -0.32768345
000180 a6 54 88 bf b0 2d 95 bf de df e5 be a0 8c 49 bb
       -1.0650833 -1.1654568 -0.4489736 -0.0030753985
000190 84 57 01 bf fc af 52 be f3 5a 55 3f 09 89 f7 3e
       -0.50524163 -0.20574945 0.833419 0.48346737
0001a0 bf 2c 93 be fa 38 9a be 91 cc 39 bf a8 b9 52 3e
       -0.28745076 -0.30121595 -0.7257777 0.20578635
0001b0 82 f8 0e 3f 6d 7f d1 be 2a 30 99 3e aa 13 01 bf
       0.5584794 -0.4091753 0.2991956 -0.5042063
0001c0 cd a8 37 3e d6 78 3d 3f 8c 39 1b 3e 00 b8 5c 3e
       0.17935486 0.74012506 0.15158671 0.21554565
0001d0 ae 0d 9c be 2c 1d 73 be 33 f1 05 3f ad 1a 5f 3e
       -0.30479187 -0.23741597 0.52321166 0.2178752
0001e0 8e 70 18 3e ec 9c d7 3d 1e 82 a6 bd 9e f2 1e 3e
       0.14886686 0.10527977 -0.08130287 0.15522239
0001f0 9b 15 43 3e a0 5d 2e bf 1a a5 67 bf 68 7e 10 bf
       0.1905121 -0.6811161 -0.904863 -0.5644288
000200 17 78 88 3e 49 7b c6 bd 3e e6 eb 3e 04 4f 81 3f
       0.2665412 -0.096914835 0.46074098 1.0102239
000210 ce 8d bc 3f 4f 7b 9c 3f 6f 0c 13 3f 97 fb 8a 3e
       1.4730775 1.2225131 0.5744085 0.27145073
000220 a1 ac 3e 3f a6 a5 06 3f cc 9d 20 3e 7b a6 63 bf
       0.7448216 0.5259651 0.15685195 -0.88925904
000230 8b 85 46 3e 0e 3c 3b be 7c 6b 23 bf d2 4d e1 bf
       0.1938688 -0.18284628 -0.63835883 -1.7601874
000240 b3 2d c6 bf f2 73 64 3d b2 61 f5 bd c8 7c 13 bf
       -1.5482696 0.055774637 -0.119815245 -0.57612276
000250 d5 b4 dd 3e 49 36 3a 3f
       0.43302026 0.7273908

conv1.bias f4 [6]
000000 c0 75 2e bd 6e 9b f9 bc 24 36 2d bf 1f 4a 26 be
       -0.042592764 -0.030469622 -0.6766074 -0.16239212
000010 aa 5b 6f bd e1 a7 99 be
       -0.058437027 -0.30010894

conv2.weight f4 [16, 6, 5, 5]
000000 c6 dd 2f be 99 da 82 be a3 da d2 be 73 15 0c 3e
       -0.17174444 -0.25557402 -0.41182432 0.13680057
000010 27 d2 63 3e 79 63 65 be ba 84 c3 be ab 30 8c be
       0.22248136 -0.22401227 -0.381872 -0.2738088
000020 b1 07 0e be b6 e5 46 3c fe 78 38 bf 7c ea a4 be
       -0.13870122 0.012139728 -0.7205962 -0.32210147
000030 c0 29 ac bd 1d 39 65 be bb f4 fd bd 3f 7c a2 be
       -0.08406401 -0.22385068 -0.12400194 -0.31735417
000040 99 90 75 3e fc 3a 14 be 3c b1 b8 be 75 e8 87 be
       0.23980941 -0.14475626 -0.3607272 -0.26544538
000050 2b f4 10 3d c9 8a 72 3f 9d 16 b0 3e 7f 8c fa bd
       0.035389107 0.9474302 0.34392253 -0.12233829
000060 ae 78 11 bf 26 c0 64 3e d0 b3 92 be c0 b0 b6 bd
       -0.5682477 0.22338924 -0.2865281 -0.08920431
000070 e6 4f 44 be ea 85 28 3a e5 95 05 bc e9 e7 db be
       -0.19171104 0.0006428646 -0.008153413 -0.4295037
000080 cf 2d a4 be b9 90 13 bd d3 62 6a be 4d 8b 4b be
       -0.320662 -0.03602669 -0.22889261 -0.19877358
000090 3f 17 13 bf d4 c6 16 3d fd e0 75 be c7 76 3d bd
       -0.57457346 0.03681071 -0.24011607 -0.046255853
0000a0 a8 b6 d8 bd ba 0e 34 3f f3 80 ef 3e 87 86 28 3e
       -0.10581714 0.7033497 0.46778068 0.16457568
0000b0 bb 80 5f 3e a2 b8 8d 3e 87 da 81 3e 2a b3 3a be
       0.2182645 0.27679926 0.25362036 -0.18232408
0000c0 af 70 c2 3e e0 4f b3 3e ba fd 01 3e 64 2b fa bd
       0.37976596 0.35021877 0.12694445 -0.12215307
0000d0 92 90 10 be 1a 30 ed 3d 2d 0c 96 3c c4 68 03 3e
       -0.14117649 0.1158144 0.018316353 0.12832934
0000e0 d1 c2 94 3b 76 9b 81 bd 3d 24 54 bc ea 07 94 3c
       0.0045398255 -0.0632848 -0.012948093 0.01807018
0000f0 55 2a ed bb 64 aa f4 bd 43 00 af be d8 12 49 bd
       -0.0072377124 -0.11946562 -0.34179887 -0.049090236
000100 cd 8f 28 3d 0e fc 5b 3d 42 13 37 be eb 68 c3 be
       0.041152764 0.053707175 -0.1787844 -0.38165984
000110 3a 10 07 bf b4 ec 95 be 6f e0 d0 3d e1 37 b2 3e
       -0.52759135 -0.29282153 0.10199057 0.34808257
000120 b6 e3 ba bd c8 76 ab be 09 22 90 be 3a 50 bf 3d
       -0.09125464 -0.3348906 -0.28150967 0.09341474
000130 5f 70 95 be 60 4c be 3d 9f 93 9c bd 50 f5 e2 be
       -0.29187295 0.09291911 -0.07645344 -0.44327784
000140 77 f3 cd bd 7c 8c 8e be 7e b0 c3 bd df 12 b3 3d
       -0.10056203 -0.27841556 -0.095551476 0.08743834
000150 ba 2e d4 be d8 7b 1c 3e 9d 2a 5d 3e 6c 90 5f 3e
       -0.414419 0.15281618 0.21598287 0.21832436
000160 20 dc 89 3d 1f 61 05 be 2d 9a 4e 3e e3 87 04 3e
       0.06731439 -0.1302533 0.20176001 0.12942462
000170 e2 4f 77 3e 35 87 30 3e 2e 63 14 3e 16 12 ee bd
       0.24151567 0.17239077 0.14490959 -0.11624543
000180 8d f8 6f be 41 3d 01 bf 0e c9 28 be a2 36 b9 3e
       -0.23434658 -0.5048409 -0.16482946 0.36174494
000190 8f 07 a8 3d 23 b2 24 be 74 5e 42 3d b0 d5 75 bd
       0.08204567 -0.16083579 0.04745336 -0.06001824
0001a0 dc 09 80 be c6 e0 9d 3d 60 6b 91 3c a4 94 5e be
       -0.25007522 0.07708888 0.017751396 -0.2173639
0001b0 c5 11 3c 3d 48 33 44 be 07 1c 38 3e 09 39 dd bd
       0.045915384 -0.19160187 0.17979442 -0.10801894
0001c0 bf dd 95 be 5e a8 a5 bd 0e d6 f1 bd 6a 20 86 3e
       -0.2927074 -0.08088754 -0.11808406 0.26196605
0001d0 f1 4b a3 bd 25 0e 17 3d f3 c9 35 bd 07 03 86 bd
       -0.07973469 0.036878724 -0.044382047 -0.06543546
0001e0 d0 34 98 3d c4 3e 07 be 9f df e6 bd ea 4a b7 be
       0.07431948 -0.13207537 -0.11273121 -0.35799342
0001f0 d5 b1 30 3d b1 05 35 be f5 b2 24 be 84 99 03 be
       0.043138344 -0.17677952 -0.16083892 -0.1285153
000200 ea ef bb bd 4e d8 65 bd 13 0a 80 be 0f 26 a3 be
       -0.09176619 -0.056114487 -0.25007686 -0.31864974
000210 8e 19 c8 be 8a b1 4f be 1c 16 28 be 22 bc 63 3c
       -0.39081997 -0.2028257 -0.16414684 0.013899835
000220 2c 38 93 3c ec ed 15 bf 24 d1 a2 be a4 da 9a bd
       0.01797112 -0.58566165 -0.31800187 -0.07561234
000230 b0 3d e9 3e 4f f5 0e bd e8 5c b4 bd 16 3f 65 be
       0.45554876 -0.034901913 -0.08806783 -0.22387347
000240 bb b5 98 bd 22 4c 1d be 26 58 21 3e a6 cf 8b 3e
       -0.07456537 -0.15361074 0.15756282 0.2730686
000250 6a 40 eb bd 2c 2f 6f 3e c6 68 87 be 7f 54 df bd
       -0.114868954 0.23357838 -0.26447123 -0.10904788
000260 9e bc d9 3d bc a5 43 bc e9 0b e2 bd 56 40 f6 bc
       0.10631679 -0.01194137 -0.11037428 -0.030059975
000270 4e 37 3f 3e 18 b2 87 3e 3f 9d a4 bb c2 cb 05 be
       0.18673441 0.26503062 -0.005023628 -0.13066009
000280 e9 56 24 3e 99 ab 89 3d 95 8f 50 bd c9 d8 50 be
       0.16048779 0.06722183 -0.05091818 -0.20395197
000290 4b b4 37 bf e3 68 a4 3e 44 98 50 3e a1 e2 78 be
       -0.7175948 0.32111272 0.20370585 -0.24305202
0002a0 66 a7 4f be 03 18 07 bf fd 83 62 3e af 65 62 3e
       -0.20278701 -0.52771014 0.22120662 0.22109102
0002b0 bb 05 94 3e a4 e6 87 be cc 14 f4 be ec aa b0 bd
       0.28910622 -0.26543152 -0.47672117 -0.08626351
0002c0 ff 4c f0 bb a4 90 83 be 5f 88 a6 be 05 74 91 3d
       -0.0073333974 -0.2569629 -0.32525918 0.07102207
0002d0 c7 5e 9a 3d 21 5b 51 be 56 84 09 be 40 0c e5 be
       0.075376086 -0.20444919 -0.13429388 -0.44735909
0002e0 4e 22 e5 bd 6f 3b f6 bd 73 71 61 bc 83 21 75 3d
       -0.11188184 -0.12023055 -0.013759959 0.059846412
0002f0 8c 7a 37 be 74 09 99 be f1 c8 05 be be 13 c0 bd
       -0.17917842 -0.29890025 -0.13064934 -0.093787655
000300 15 8f 1d 3f 89 17 83 3e 9e 60 c3 bd 51 63 42 bd
       0.6154645 0.25603893 -0.09539913 -0.047457997
000310 16 93 f0 3d 4c 16 89 3f 26 3c 29 3f 59 e6 0e 3f
       0.117468044 1.070993 0.66107404 0.5582023
000320 52 19 02 3d a0 16 18 3c 3a d5 ba bd 1e a2 8a bc
       0.03176243 0.009282738 -0.09122701 -0.016923007
000330 cd a1 c2 bd 91 97 6b be 76 3b ba bd a0 35 9c be
       -0.09503517 -0.23007037 -0.090933725 -0.30509663
000340 86 e2 49 be cc 90 64 bd c7 b6 bf bc db f8 db 3c
       -0.19715318 -0.05580215 -0.023402585 0.026852062
000350 90 12 7a be 7d 56 07 be a5 74 8d bd 80 78 81 bd
       -0.24421144 -0.13216586 -0.06907014 -0.06321812
000360 68 c7 8d bd 57 9a 81 be 20 8e cc be 31 91 8d be
       -0.06922799 -0.25313064 -0.39952183 -0.27649835
000370 e1 58 23 bf b1 1f 51 bf 6c cf 3a bf 97 24 9e be
       -0.63807493 -0.8168898 -0.7297275 -0.3088729
000380 f7 5c 93 be d9 52 dd 3d d0 27 d7 3e 4b 10 8d 3e
       -0.28781864 0.108068176 0.42022562 0.27551493
000390 b4 7b 81 3e 47 11 8b 3c 04 b3 98 bd dc 44 ed 3e
       0.2528969 0.016976012 -0.074560195 0.46341598
0003a0 20 b5 6f 3e 30 c3 7f 3d 2a 7b c5 3e 30 4b 61 be
       0.23408937 0.062442005 0.3857053 -0.22001338
0003b0 33 a9 0d 3d ce 59 6b 3e 20 4c 7d be eb 5a 3b 3d
       0.03458519 0.22983477 -0.2473607 0.045741003
0003c0 9e bb cb bc 52 de 8d be 9d 42 05 3e b4 90 d2 be
       -0.024869736 -0.2770868 0.13013692 -0.41126025
0003d0 f0 0e e5 be bc 38 1c bd fb 62 04 be 86 27 73 bc
       -0.4473796 -0.038140044 -0.12928383 -0.014840966
0003e0 b1 06 8a be be 4a 5e be 6a cb 92 be a2 87 12 3c
       -0.2695823 -0.217082 -0.28670818 0.00894347
0003f0 92 a2 e7 bd c2 8d 4a 3d ec fb 4e 3e 79 0f 55 be
       -0.11310305 0.049451597 0.20213288 -0.20806684

conv2.bias f4 [16]
000000 41 36 29 bf 57 e1 db 3d 85 4b 77 be 55 34 1d be
       -0.6609841 0.107363395 -0.24149902 -0.15351994
000010 68 fb 46 bf 42 c9 80 3e af 8d 21 be 1b 88 cc 3e
       -0.77727365 0.25153548 -0.15776704 0.3994759
000020 8f 17 e0 be 27 f3 23 3f fa a8 3d be ab f8 14 3f
       -0.43767974 0.64042896 -0.1852149 0.5819194
000030 d5 9f 87 be 60 8f 2a bf ca 31 27 3e 2d 34 48 bf
       -0.2648913 -0.6662502 0.16327587 -0.78204614

fc1.weight f4 [120, 1296]
000000 57 ba e1 3d a4 71 7e 3d 40 ee 5e 3e ea d0 f6 3c
       0.1102187 0.062120095 0.21770573 0.030128915
000010 74 9b 4a bc b8 61 36 3d 8d 4d 10 3d ed 1c 02 be
       -0.0123661645 0.044526786 0.03523021 -0.12706347
000020 1b 8c 0b be 07 18 9e bd 6f 55 67 bd bc 7c 40 be
       -0.13627665 -0.077194266 -0.05647796 -0.18797582
000030 17 94 fc bd b9 3e 66 be 29 a4 f5 3c 6e a3 a4 3d
       -0.123329334 -0.22484864 0.029985504 0.08038984
000040 e6 89 17 be 7d a8 f3 bd 4f 26 31 bd 70 e7 05 3d
       -0.14798698 -0.11897371 -0.043249425 0.03269142
000050 a2 33 cc bd ce 2b 92 3c 7c be b6 bd cb c5 07 3c
       -0.09970786 0.017843153 -0.08923051 0.008286904
000060 05 3f af 3c b1 49 47 be 70 10 c7 bd db e5 09 3d
       0.021392355 -0.19461705 -0.09719932 0.033666473
000070 31 ab 08 be 48 57 ba bd fd 49 03 3d e0 93 e2 3d
       -0.13346554 -0.09098679 0.032052983 0.11063361
000080 f7 9e 6a be 37 c3 d4 bd ee 7f 35 bc 0e 34 1c bb
       -0.22912203 -0.10388797 -0.011077864 -0.0023834738
000090 69 ac 8d bd 47 91 e1 bd 56 28 a5 bc 2c 28 0e 3e
       -0.0691765 -0.110140376 -0.020160835 0.13882512
0000a0 6d 1d 81 bd 43 5a c2 bd 76 f5 45 bd 01 31 7c be
       -0.06304441 -0.09489872 -0.048329793 -0.24628069
0000b0 3f 4b f4 bc 80 ad bb 3c 45 51 0f 3d 15 2d b2 bc
       -0.029821036 0.02290988 0.034989614 -0.021750012
0000c0 9c 2c 46 3d df 55 1b 3e 17 ed 9a bd b0 c0 a2 3c
       0.048382387 0.15169476 -0.075647525 0.019867271
0000d0 c9 83 cf bd 60 07 88 bd 45 90 28 be 74 43 38 be
       -0.10132558 -0.06642032 -0.16461284 -0.17994481
0000e0 d9 1a d0 bc 63 76 47 3e 87 16 77 3e 0d 62 ca 3c
       -0.025403427 0.19478755 0.24129687 0.024704957
0000f0 b0 e7 01 3c 73 c6 53 bd a4 5a 52 3c 07 93 b6 3d
       0.007928774 -0.051702928 0.012838993 0.08914762
000100 e0 0a b6 3d df fc 2f bd fb 1a 1b 3c bb 4f 2a 3e
       0.08888793 -0.042965766 0.009466882 0.16631977
000110 d5 e2 00 3e cd 9a 65 3e 1a 89 f3 3a 7d db 56 3e
       0.1258653 0.22422333 0.0018580288 0.20982166
000120 d7 bc 12 3c 74 4b c9 bd 86 0c 68 3d d5 89 34 3e
       0.008956156 -0.09828845 0.05665257 0.17630704
000130 95 1f 0f be d1 84 fe bc 96 5b 79 3d ba 48 ad bc
       -0.13976891 -0.031069191 0.06087836 -0.021152843
000140 9c 04 81 bd 8b f2 34 bd 54 6b ef bd d8 13 52 be
       -0.06299707 -0.04417662 -0.11690393 -0.20515382
000150 9b 5a e5 3c 11 d5 11 bc 5a 4b a2 3d e6 80 3d bd
       0.027997306 -0.008900897 0.079245284 -0.046265505
000160 54 d5 cb bc 39 79 ae bd 4b e9 97 bd eb 23 62 3c
       -0.024881996 -0.08519215 -0.07417544 0.013802509
000170 4c c2 cd bd 0a 6d 2f bd c7 87 0f be 37 11 ed 3c
       -0.10046825 -0.042828597 -0.14016639 0.028938873
000180 ed 2a 3f 3e 24 c5 3e bd 0e 99 1e be 85 23 a2 3d
       0.18668719 -0.046574727 -0.15488073 0.07916931
000190 8e ef 30 bd 52 2c f9 bd 67 d1 c8 bd f6 6e 32 be
       -0.043197207 -0.121666566 -0.09805565 -0.1742514
0001a0 e4 0b 89 bc 93 da 87 be 7b 62 8a 3b 43 fa 9d bc
       -0.016729303 -0.26533946 0.0042231656 -0.019284373
0001b0 43 50 ae 3d cc b6 4d bd e4 ba 3f 3c 6f 2a 96 3d
       0.085114025 -0.050223157 0.011702273 0.07332312
0001c0 a4 0f 1e be ff d1 b4 3b 04 1a ee 3c 05 aa d0 3d
       -0.15435654 0.0055181975 0.02906514 0.10188679
0001d0 e7 02 be 3d 27 84 14 3b ac ea e2 3d a4 8d ba 3d
       0.09277897 0.0022661777 0.11079916 0.09109047
0001e0 fd 66 92 3d 13 28 3c be c7 2f 72 3d cd 1b 99 3d
       0.0714855 -0.18374662 0.059127595 0.07476006
0001f0 80 6b b5 3d 4f 9c 1c bd 6f b6 a8 bd f2 a4 3f bd
       0.088583946 -0.038235005 -0.082379214 -0.046788163
000200 14 9a 25 3d 57 4f f9 3b de ad 69 bc 80 6b 21 3d
       0.040430143 0.007608335 -0.014262645 0.03940916
000210 bf 03 92 3c 52 6a 38 3e 67 25 19 3e 13 ad 96 3b
       0.017824052 0.18009308 0.14955674 0.004598269
000220 d4 2d 75 bd 87 0f 3c 3d 14 8f 2e 3d 7b e5 b8 3d
       -0.05985816 0.045913246 0.04261692 0.09028145
000230 b1 e1 c1 3d b8 cb 05 be a3 a3 ef bb 80 08 e3 3d
       0.09466875 -0.13065994 -0.007313208 0.110856056
000240 9f a1 d3 3d 03 7c 01 3e 99 d0 8d bd 20 40 e8 bd
       0.10333561 0.12644963 -0.069245525 -0.11340356
000250 47 7c f8 3d cb ca 89 3e 86 82 34 bd a7 b9 54 3d
       0.12133079 0.2691253 -0.04406979 0.051934864
000260 df 3e 82 bd 8c 71 ee bd 4c cf 67 3e 83 46 1b be
       -0.06359648 -0.11642751 0.22637671 -0.15163617
000270 b6 98 5a 3c 46 b2 b2 bc 02 5a 58 3e 63 a5 2b 3e
       0.013342073 -0.021813523 0.21128085 0.16762309
000280 a2 8a 7e 3d 86 61 4b 3d 80 47 6e bd 4b 3e 69 bd
       0.06214393 0.049653552 -0.058173656 -0.056944173
000290 0f 1f d6 3d 1a 95 46 3d e6 cf b1 3d 99 3f 2d 3d
       0.10455143 0.048482038 0.086822316 0.04229698
0002a0 73 69 98 be 1c 51 ce bc 09 1b ca bd d8 03 09 be
       -0.2976795 -0.02518516 -0.09868438 -0.13380373
0002b0 c0 ac 34 3c 8c af ed 3d a1 7e 40 be 57 50 b3 3c
       0.011027515 0.116057485 -0.18798305 0.021888895
0002c0 90 f2 a2 3d b6 b0 4c be 46 9b 95 bd 0b 72 08 3c
       0.079564214 -0.19989285 -0.07305007 0.008327971
0002d0 14 3e fc bc 52 65 09 be e8 6f 1f bd 2b d7 a2 3d
       -0.03079132 -0.13417557 -0.03892508 0.07951196
0002e0 ca 35 1f be 98 eb e7 bd 1a da 12 3d a4 05 82 3e
       -0.15547863 -0.11324233 0.03585253 0.25394928
0002f0 ae e9 01 be b9 dc f3 3c 72 74 18 3e f3 28 b4 bd
       -0.12686798 0.029768335 0.1488817 -0.08796873
000300 51 77 46 bd 04 e2 49 be 47 9c bf bd e3 a5 d8 bb
       -0.048453633 -0.19715124 -0.093559794 -0.006611572
000310 f2 06 d2 3d eb 3e 24 be 2c 07 d7 bc d7 42 f1 3c
       0.10255231 -0.16039626 -0.026248537 0.029450817
000320 4f 24 45 bd 14 eb 67 bd 0e 1a fd bd a0 43 e2 3d
       -0.04813033 -0.056620672 -0.12358485 0.11048055
000330 01 c0 bf bc 7a 28 ce bd 30 17 82 3c eb d2 59 3c
       -0.023406984 -0.10066314 0.015880197 0.013294916
000340 f9 54 a5 bc 45 fc af bd 14 75 70 3e 34 73 10 3e
       -0.02018212 -0.085930385 0.23482162 0.14106447
000350 b2 cc a6 bd 05 56 b0 bb d6 a4 dd 3d 34 b5 56 bd
       -0.08144511 -0.005381348 0.108224556 -0.052418903
000360 fe 1a 2a bd ae 3d 0f 3e 54 97 62 3e 71 eb 7f 3d
       -0.041529648 0.13988373 0.2212804 0.062480394
000370 6a 7c f2 bd f5 ac 48 3d 24 bb 92 3d 47 f1 30 3e
       -0.11840136 0.04899307 0.071646005 0.1727954
000380 2a 21 b0 bd 08 e0 da 3d f2 e1 cc 3d c4 f9 ab bc
       -0.086000755 0.10687262 0.10004033 -0.020993121
000390 13 5e fb bd 16 32 40 3e e2 e0 12 bd a0 fa 25 3e
       -0.122738026 0.18769106 -0.035858996 0.16208887
0003a0 5c 02 f9 3d 15 ac 93 bd 38 e3 21 3e 5c ab e2 3d
       0.12158653 -0.072105564 0.15809333 0.110678405
0003b0 ff 46 a3 bd e0 ef 1a bd 59 1d 05 3e cf b0 70 be
       -0.07972526 -0.03782642 0.12999476 -0.23504947
0003c0 e0 67 3c bd 30 3b 0e be 1b 25 ae 3c 3e ef df 3d
       -0.0459975 -0.13889766 0.021257928 0.10934304
0003d0 0d 60 9c 3d ab b0 0b bd 97 23 82 bb ee 37 94 3d
       0.07635508 -0.03410403 -0.003971528 0.0723723
0003e0 3e ff 34 bd b5 da c9 3c 97 8a 6f 3d 34 79 74 bd
       -0.04418873 0.02464042 0.05848178 -0.0596859
0003f0 35 49 7b 3e 23 32 57 3b 1e a2 f7 bc d2 ee e1 3d
       0.24539645 0.003283628 -0.03022867 0.110318795

fc1.bias f4 [120]
000000 57 08 39 bc 46 6f 66 bb f1 bc ee 3d 2a d7 b4 bd
       -0.011293492 -0.003516154 0.116571315 -0.08830102
000010 18 91 b3 3d 47 9d 8d bd 9f 3d bf 3c b9 aa 25 bd
       0.08767909 -0.06914764 0.023344813 -0.040446017
000020 3d c6 1e bd cb f9 e4 3d 6a 21 36 3e 15 b1 8c bd
       -0.038763274 0.11180457 0.17786184 -0.06869713
000030 86 64 8f 3d 0b 6f 9c 3d 5c ae a6 bb d4 cb 2f bc
       0.07001595 0.07638367 -0.005086703 -0.010729749
000040 db f8 d9 3d e9 90 82 bd 09 bd 03 3e 84 ee c4 3d
       0.106431685 -0.06375296 0.1286508 0.09615806
000050 95 10 22 3e 96 2e 45 3d 23 37 01 3d bd df f3 3d
       0.15826638 0.04814013 0.031546723 0.11907909
000060 5f 51 5d 3e 82 6c e9 bd 71 f1 11 3c be bb 17 be
       0.21613072 -0.11397649 0.008907662 -0.14817712
000070 f1 e0 fd bd b9 c1 df bc 03 74 fc 3c 75 41 46 bc
       -0.1239642 -0.027314054 0.030817037 -0.012100567
000080 f8 0f 50 3d cf ea 66 bd 36 23 b0 bd e9 52 e0 3c
       0.05079648 -0.056376275 -0.08600466 0.027383285
000090 9d 08 07 3e d4 7f b1 bc 84 c5 03 be 91 de 65 bd
       0.1318688 -0.021667399 -0.12868315 -0.05612046
0000a0 8a aa 71 bd 28 c8 a1 bd fa 94 8a bc 47 ba c3 bc
       -0.05900053 -0.07899505 -0.01691674 -0.023892535
0000b0 22 60 1b bd ea 5b c8 3d d0 f8 90 bd 31 4d 99 3c
       -0.037933476 0.09783156 -0.07078707 0.018713566
0000c0 48 3e e6 bd db bf f7 3d e8 19 9e bd d0 71 a1 3c
       -0.11242348 0.120971404 -0.07719785 0.01970759
0000d0 57 8d 60 3d 98 71 79 3d ee f6 77 3d ac 4b 00 bd
       0.054822292 0.060899347 0.060538225 -0.031322166
0000e0 3f ef e8 bd 71 9c 1d bd c9 8d 8b 3d 05 d3 1a 3c
       -0.113737576 -0.038479272 0.06814153 0.009449725
0000f0 18 da 7e 3d d3 51 81 be 00 53 30 3e cb 2d 03 3c
       0.06221971 -0.2525774 0.17219162 0.008006523
000100 e9 3a ed bd 16 c9 52 3e 19 23 09 3e 1e 56 50 bc
       -0.11583502 0.2058452 0.13392295 -0.012715844
000110 d9 6a 65 3e 21 a8 53 bd 7f 11 b4 3c 5f 34 0e be
       0.2240404 -0.051674012 0.021980999 -0.13887165
000120 15 b9 3b bd df b9 19 3d e6 4d 8a 3e eb f8 3d 3e
       -0.045830805 0.037530776 0.27012557 0.18551986
000130 f0 2e 22 be 90 7a 0e 3d 77 9b f5 bb 3d 4c 96 bd
       -0.15838218 0.034784853 -0.0074953395 -0.0733876
000140 d7 98 09 3d 5b 87 8e bd 0c 9a 38 bd 38 18 9e 3d
       0.033593025 -0.06959411 -0.045068786 0.07719463
000150 ef 88 e9 bd f5 c3 65 3c 7e da a3 bd 37 70 da 3a
       -0.11403071 0.014023771 -0.080006585 0.0016665523
000160 6e f8 55 bd 93 04 2f bd b4 37 83 3c c0 4c 92 3b
       -0.052238874 -0.04272897 0.016017772 0.0044647157
000170 36 fb 17 3e 1a 16 b6 bc 5f ce 53 3a ba 78 3f bd
       0.14841923 -0.022227336 0.0008079763 -0.046745993
000180 22 64 7a bd f5 7b 04 bc e1 b8 68 bb b4 6a e8 bd
       -0.06113065 -0.008086194 -0.0035510587 -0.11348477
000190 59 ef a1 3d 44 a7 c3 3c 46 4a 01 be e5 71 00 bd
       0.0790698 0.02388347 -0.1262599 -0.03135862
0001a0 33 2d fd bd b8 83 c3 bd be 0a ed 3a e8 e8 11 3e
       -0.12362137 -0.09546608 0.0018084866 0.14249003
0001b0 1d 82 5a bc 21 49 9d 3c 25 f9 0e 3e e1 f8 92 bc
       -0.0133366855 0.01919991 0.13962229 -0.01794094
0001c0 6f fc e9 3d f7 0f d3 3d 91 d6 77 bd 23 68 90 bd
       0.11425101 0.103057794 -0.06050736 -0.070511125
0001d0 3b 3a 03 3d c0 e5 06 3e b2 e8 77 3c b0 94 04 3d
       0.032037955 0.1317358 0.0151311625 0.032368362

fc2.weight f4 [84, 120]
000000 1e 08 f6 bd 30 a6 5a 3e b9 6d e0 3c f3 89 7f bb
       -0.12013267 0.21352458 0.02739607 -0.0038992136
000010 f5 b2 aa 3e 9b 99 65 be ea f8 ac be 6a a1 93 3d
       0.33339658 -0.22421877 -0.33783656 0.07208522
000020 88 85 cc 3d 80 d2 1a 3e 9b c3 60 3e 1e 5d bd bd
       0.099864066 0.15119362 0.21949618 -0.09246276
000030 36 2c e2 3d 60 15 f8 3d e5 3c 8b 3d fc 91 49 bc
       0.11043589 0.12113452 0.06798724 -0.012302872
000040 c6 e6 2a bd d0 1b 30 be ee c8 28 be 2f cb 3f 3e
       -0.04172399 -0.1719811 -0.16482899 0.18729852
000050 67 59 92 3d 85 22 23 be 0e 8c 5c be d6 03 9b be
       0.071459584 -0.15931137 -0.21537802 -0.30276364
000060 47 d6 e3 3d c8 b9 c6 3c be b8 ce bd e9 d4 6d 3d
       0.111248545 0.02425851 -0.100938305 0.058064375
000070 6d b8 8b 3b 9c 04 8a 3b 70 42 47 3e c4 a8 78 3d
       0.0042639286 0.0042119753 0.19458938 0.060707822
000080 96 ce 35 3d c7 d8 79 bd 59 e3 9c 3d 7c a4 27 3c
       0.04438647 -0.06099775 0.076605506 0.010232087
000090 8e 19 a3 bd d3 1e 75 3b e6 94 14 bd 53 63 03 be
       -0.079638585 0.0037402406 -0.036274813 -0.12830858
0000a0 cf 72 56 3d 78 47 22 3e 83 d1 2f 3d 08 aa 80 be
       0.052355584 0.15847576 0.042924415 -0.25129724
0000b0 a0 50 3a be 1b eb 8a 3d c7 b0 37 bd 47 19 88 bd
       -0.18194818 0.06783124 -0.044846322 -0.06645446
0000c0 9f a2 9c bd 5a 1b 44 3d 65 7b 5f be 82 f1 e8 3d
       -0.07648205 0.047877647 -0.21824415 0.11374189
0000d0 f7 f9 42 be de b5 ad bd a1 63 3d be fc 28 e5 3c
       -0.19040667 -0.08481954 -0.18495037 0.027973644
0000e0 0e e4 84 be 8e 23 bf bd 2c 9c 01 3e 49 a4 06 3e
       -0.25955242 -0.093329534 0.12657231 0.13148607
0000f0 32 7a b4 3d 19 98 75 3c ca 3a 2c bd cb ff ce bd
       0.088123694 0.014989876 -0.042048253 -0.101073824
000100 cb 5a a8 bd 1d 7a e2 ba 62 cf 8e 3d 2a 68 bd bc
       -0.082204424 -0.0017278824 0.06973149 -0.023120958
000110 16 08 52 be 49 93 97 3e 6f 18 0d be a9 04 95 bd
       -0.20510897 0.29604557 -0.13778852 -0.072762795
000120 12 5a 70 bd dd 01 88 3e f8 93 c9 3d ea a2 cc 3d
       -0.058679648 0.26563922 0.09842676 0.09992011
000130 44 84 76 3d 6d 0f 30 be 71 f0 03 bd 9e 53 7e be
       0.060184732 -0.17193384 -0.032211725 -0.24836585
000140 0c 3f 6b be 29 fe b9 3d 24 d1 63 be 8a e7 46 3e
       -0.22973269 0.0908168 -0.2224775 0.19424263
000150 53 1c 54 3d 9f 07 23 3e 2f d7 d8 bc fd 80 b5 bd
       0.051784825 0.15920876 -0.026469795 -0.08862493
000160 a2 22 ac 3c 27 76 82 3e e3 ed 7d 3e 11 aa 57 3e
       0.021012608 0.25480768 0.24797778 0.21060969
000170 9a 6e 36 3e 8e ef ae bd c3 dc 69 be 82 b0 86 bd
       0.17815629 -0.08541785 -0.2283812 -0.06576635
000180 24 a7 94 bc 35 f4 2f be 48 b2 64 bd cf 20 1a 3e
       -0.018146105 -0.17183001 -0.055834085 0.15051578
000190 88 27 61 bb d0 8c 56 3b c4 5c 6e be f1 45 a7 be
       -0.0034355838 0.003273774 -0.23277575 -0.3267055
0001a0 47 fa 86 3d 4d 12 25 3e d1 2b 54 3c 83 47 6a 3d
       0.06590705 0.16120262 0.0129499 0.057197105
0001b0 91 a8 da 3d 58 8a 80 3d 3c 43 a0 3e 1a 9a 30 be
       0.10676683 0.06276387 0.31301296 -0.17246285
0001c0 30 58 5e 3e 8d 76 41 3d e0 31 64 be 41 a1 9a 3d
       0.21713328 0.0472322 -0.22284651 0.07550288
0001d0 f6 ba 32 be 46 fc 79 3d 59 ca d3 bd 0f ac 2b 3d
       -0.17454132 0.061031602 -0.10341329 0.041912135
0001e0 68 b8 89 3e 90 02 91 bb 84 3b 2b 3d 65 47 52 3c
       0.26898503 -0.0044253543 0.041804805 0.012834405
0001f0 13 29 8a 3e bb 58 f2 3d 8b f2 1d be 51 b8 26 bc
       0.26984462 0.1183333 -0.15424554 -0.01017578
000200 88 1b 6f be 03 60 2a be 60 df 17 be 08 05 30 3e
       -0.23350346 -0.16638188 -0.14831305 0.1718942
000210 b7 c1 71 3d da 56 f1 bc 93 18 24 be 0f ee 7e bd
       0.05902263 -0.02946036 -0.16025 -0.06223875
000220 74 7e 81 be b6 a9 23 3e 24 76 6b bd fa 68 42 3d
       -0.2529179 0.15982708 -0.057485715 0.047463395
000230 dd 46 87 bd 46 69 54 3e dc e7 2c be c8 31 b6 3b
       -0.06605313 0.20743284 -0.16885322 0.0055601336
000240 3b 48 3d be f1 ba 03 bd 4f 26 40 be 8d a0 2b 3e
       -0.18484585 -0.032160703 -0.18764614 0.16760464
000250 68 03 21 3e 60 b3 b9 3c 94 15 cf bd d1 64 d7 bb
       0.15723956 0.02266854 -0.101115376 -0.0065732975
000260 96 ad d2 3d c6 8b ab 3e 91 8e 23 3d 1e 13 93 bc
       0.10287015 0.33505076 0.039930884 -0.017953452
000270 91 eb 21 3c 4d e4 9d bd a8 04 bb bd 6f 67 02 be
       0.009882824 -0.077095605 -0.091317475 -0.1273477
000280 b2 d6 ba 3b d8 6e 04 3e 09 04 83 bd 90 54 3d 3e
       0.005701863 0.12932909 -0.06397254 0.1848929
000290 51 ac 56 3d c6 8e 10 3d 15 84 a7 3d 58 45 ad 3d
       0.052410427 0.03529241 0.081794895 0.08460492
0002a0 c1 5b ed 3d fe 30 78 bd a1 0c 0b 3e 9b a8 d3 3c
       0.11589766 -0.060593598 0.13579036 0.025837233
0002b0 8c bf 0f be ff 49 ef 3d 79 7f 68 bc 09 28 13 3e
       -0.14037913 0.116840355 -0.014190548 0.14370741
0002c0 b1 8e 34 3d 22 20 ad bb ce da 54 be 9c b8 94 bc
       0.044081394 -0.0052833715 -0.20786592 -0.018154435
0002d0 bb f7 86 bd cb 4f cc 3d 03 7e 09 3e 04 bf b1 bd
       -0.065902196 0.09976157 0.13426976 -0.086790115
0002e0 4a 0a b2 bd 58 9a 89 be cf 96 ba 3d 0b 6e 42 be
       -0.08693369 -0.26875567 0.09110796 -0.1898729
0002f0 34 b4 ab bc 44 f2 11 be 6b da ba 3d 82 ce 8c 3d
       -0.020959951 -0.14252573 0.09123691 0.06875326
000300 d2 8d 2d be cc 68 fe 3d bc d1 8d bb 39 84 83 be
       -0.16948631 0.12422332 -0.004327981 -0.25686815
000310 ba 3c 62 be 31 1c 51 be 31 c4 98 bd e7 23 74 be
       -0.22093478 -0.2042091 -0.074592955 -0.2384182
000320 a2 a5 11 be 6e fc 57 bd d0 e3 d1 bd ee 7d 4e bd
       -0.1422334 -0.05273097 -0.1024853 -0.050413065
000330 2e b9 04 3e 9c ce a1 3d 52 7e 4d 3d 62 70 0c be
       0.12961265 0.07900736 0.050169297 -0.13714746
000340 f1 4b f9 bd 09 9e 45 bd 72 5f 56 3d f8 41 bb bd
       -0.12172688 -0.048246417 0.052337117 -0.09143442
000350 d5 f7 36 be ad 8e 22 bc 6e ce 83 3e 89 00 3e bd
       -0.17867978 -0.009921712 0.2574343 -0.04638723
000360 1e 2e 1b bd f4 60 e5 bd f7 b6 00 be c0 62 8d bd
       -0.037885778 -0.11200133 -0.12569796 -0.06903601
000370 20 09 c7 3c 88 c0 0f be 8b cf b1 bc 04 32 37 bb
       0.024296343 -0.14038289 -0.02170541 -0.0027953396
000380 54 39 22 bc f9 1e 05 3d b0 bf 64 3e 93 bd 25 3e
       -0.009901363 0.03250024 0.22338748 0.16185598
000390 18 0e 30 be 78 df 64 bd 84 67 2f bc dc 77 a0 bd
       -0.17192876 -0.05587718 -0.010705832 -0.07835361
0003a0 69 a5 a9 bd a8 1b 79 be 2c cd 07 bd 86 27 ee 3d
       -0.082835026 -0.24326956 -0.03315465 0.11628632
0003b0 0e b2 e1 3d 27 a3 d8 bd 05 69 95 be 94 fb cb 3d
       0.11020289 -0.10577994 -0.29181686 0.09960094
0003c0 73 4d 5f bd 26 57 44 3e 2d 27 99 bd 0e 53 20 bd
       -0.05451722 0.1917387 -0.07478175 -0.039141707
0003d0 7a e9 c9 3d c2 23 fb 3d 38 d4 a4 3d be e1 01 3e
       0.09858985 0.1226268 0.0804829 0.1268377
0003e0 46 58 02 be 61 b9 65 be 7c 3d 86 bc 7f 6d 00 be
       -0.12728986 -0.22433998 -0.01638674 -0.1254177
0003f0 bd 91 19 bd 86 66 64 3c fb 2e fb bd 0d 13 91 3d
       -0.037492502 0.013940459 -0.1226482 0.07083712

fc2.bias f4 [84]
000000 62 4c 9b 3d a3 f6 67 be c0 6c b7 3c d1 7a de 3e
       0.07582928 -0.22652678 0.022390723 0.43453076
000010 c7 3d d9 bd 5b bf 53 3e 82 a0 3f 3e 52 4c 6a 3d
       -0.10607486 0.20678465 0.18713573 0.05720169
000020 a5 c4 26 3e c5 96 1d 3e 93 ac 1e 3e d1 5d c4 bd
       0.16285951 0.15389545 0.1549552 -0.095882066
000030 04 71 e5 3e 39 c1 c8 3d 34 a4 ef 3d 1d c3 9f bd
       0.44812787 0.09802479 0.11701241 -0.07800887
000040 24 ea 19 3e 23 14 88 3d 37 b5 6f 3e c1 2e 46 3e
       0.15030724 0.06644466 0.23408972 0.19353773
000050 f6 65 bb 3d 6d 40 3d 3d 7e 47 70 bd e8 9b 03 3e
       0.09150307 0.04620402 -0.05866193 0.12852442
000060 74 eb d4 bb 43 3b 8e 3c 86 64 94 3d 7c bf 82 3e
       -0.0064977948 0.017362243 0.07245736 0.25536716
000070 7f e1 7f 3e f7 32 b3 bd 9f 8f e9 3e 27 57 51 bd
       0.24988364 -0.08749955 0.45617387 -0.051108506
000080 a8 26 03 3f 6a 95 ce 3d 44 41 92 3d af f0 86 bd
       0.5123086 0.10087092 0.07141355 -0.065888755
000090 e1 39 27 3e c8 fe 80 3d 69 dd a6 3e 6c bb 3f bd
       0.16330673 0.06298596 0.32590798 -0.0468096
0000a0 2a a5 01 3e 10 32 94 bd 1c be 8a 3c bd 09 a4 3e
       0.12660661 -0.07236111 0.016936354 0.3203868
0000b0 14 48 aa 3e 62 bd fc bd 8c a2 13 3f de 17 a2 bb
       0.33258116 -0.123408094 0.576699 -0.004946693
0000c0 80 fa 97 bc e2 04 e0 bd e0 54 f9 bd 95 0f 12 bd
       -0.018552065 -0.10938431 -0.12174392 -0.03565939
0000d0 10 de a6 3d 04 00 5d 3d da b8 83 3e e2 86 b7 3e
       0.08147824 0.053955093 0.25726968 0.35845095
0000e0 46 14 a8 bd dc 68 2e bd d8 c3 c9 3e 3a ba c5 bd
       -0.08206992 -0.04258047 0.3940723 -0.096546605
0000f0 73 be c8 3e ba 4f 16 be b7 eb 9b 3e c0 a2 92 3d
       0.392078 -0.14678851 0.30453274 0.07159948
000100 57 95 cd bd 63 2a ea ba cd 34 8a be 8d c8 01 be
       -0.1003825 -0.0017865415 -0.2699341 -0.1267416
000110 05 e0 85 3e 48 8e f2 3b 10 46 00 3f f1 7a dd 3e
       0.26147476 0.007402215 0.50106907 0.4325786
000120 3c af 83 3d f7 76 a3 bd 60 00 58 3c 5c e1 53 3e
       0.06429908 -0.07981675 0.013183683 0.20691437
000130 50 28 7c 3e 19 7a 13 3e 0a ae c6 3e 14 b9 95 3d
       0.24624753 0.14402045 0.38804656 0.073106915
000140 86 5a 0b 3e d6 18 45 3e 2c ac de 3e df a9 a0 3e
       0.1360875 0.19247755 0.43490732 0.313796

fc3.weight f4 [7, 84]
000000 a4 45 cd 3e 80 7d 9a 3d a4 e9 64 bd be ae 39 bd
       0.40092194 0.075434685 -0.05588688 -0.045332663
000010 b1 db 30 be 4a 8e 36 3d aa 9b c5 3e 92 8c d7 bd
       -0.17271306 0.04456929 0.38595325 -0.105248585
000020 31 53 4d be b1 9b 31 be f3 12 7f bd f5 2f 9a bd
       -0.20051266 -0.17344548 -0.06227393 -0.07528678
000030 22 cd 42 3d ca 6b 63 bd 18 0d 98 3c ba d0 35 bd
       0.04755891 -0.055522718 0.018560931 -0.04438851
000040 6c a7 0d 3e bd 28 a3 be b7 14 6c 3d fa 02 62 3d
       0.13833398 -0.31867018 0.057636943 0.05517862
000050 bc 42 00 be 68 81 8f 3b 73 84 36 3c 0e e1 e2 bd
       -0.12525457 0.00437944 0.011139977 -0.11078082
000060 1f fb 1d 3e 31 af 0d 3e 86 52 f7 bd 9e 99 11 3d
       0.15427826 0.13836361 -0.12076287 0.03554689
000070 94 bc 0d be bb e6 14 3e cb 26 0b 3e 40 3b 6a be
       -0.13841468 0.14541142 0.13589017 -0.22874165
000080 8e 04 4c 3e 50 1a b9 3e 88 88 36 3e d0 b9 e8 3d
       0.19923612 0.36152887 0.1782552 0.11363566
000090 e0 a3 25 3e 82 01 78 be 95 af 6c be 42 75 30 3e
       0.16175795 -0.24219325 -0.23113854 0.1723223
0000a0 94 9e 93 bd db 2c b6 3e f5 09 e8 be eb 3e c6 be
       -0.07207981 0.35581097 -0.45320097 -0.38719878
0000b0 2e f3 b5 bd 92 df 59 3e 32 fc 8b 3d b3 13 a9 3e
       -0.088842735 0.21276692 0.06835212 0.33022842
0000c0 22 68 ed bd dd 75 f9 3c 99 4b 65 3e e6 24 80 3e
       -0.115921274 0.03045171 0.2239212 0.2502815
0000d0 4e c4 37 3e fb ec 4f bd 9e 86 59 3e 49 b7 7c 3e
       0.17945978 -0.05076311 0.21242759 0.24679293
0000e0 d4 10 96 3e 09 2a d3 bd 1e 0c cf bd 5b 71 56 3d
       0.29309714 -0.10310752 -0.10109733 0.052354198
0000f0 d1 37 aa 3e a2 aa f1 bd be 96 5d 3d 15 39 88 be
       0.3324571 -0.11800124 0.054098837 -0.2660605
000100 84 03 0b be 7c 10 19 be f1 d7 52 3e 17 3b be 3d
       -0.1357556 -0.14947695 0.20590188 0.09288614
000110 67 03 43 be 07 55 f8 bd b9 01 89 3e 15 c9 e6 be
       -0.19044267 -0.12125593 0.26759127 -0.45075288
000120 7c eb ec 3d a5 4f b7 3d 0b 92 7f be 2b 13 d2 3d
       0.115683526 0.08950738 -0.24958055 0.10257562
000130 54 db 1e be d6 93 05 3d be 51 41 3e cc 22 15 3e
       -0.15513355 0.03261169 0.18878838 0.14564055
000140 89 37 1f be cd ab 56 bd 7d 19 52 3e de 8e 39 be
       -0.15548529 -0.052409936 0.20517536 -0.18120906
000150 2d 36 bc bd cd 07 d7 3c 1b 54 04 3e be 77 06 be
       -0.09190021 0.026248837 0.12922709 -0.13131616
000160 47 05 82 bd ce 5f 88 be 4b 83 87 bd f9 f8 11 be
       -0.06348663 -0.26635593 -0.06616839 -0.14255132
000170 b9 6b 43 3e 1c ab bf be ef 63 d7 3d e7 f0 21 be
       0.19084062 -0.37435234 0.10517108 -0.15814553
000180 9d d7 cf bd 16 ff 80 be 20 70 2e be 61 54 cd bd
       -0.10148547 -0.25194615 -0.1703496 -0.100258596
000190 3d 6f 9b 3e ee 3b 87 3e 0a 16 69 be f3 d5 27 3f
       0.30358306 0.2641291 -0.22762313 0.65560836
0001a0 47 08 00 3e f2 80 be 3e 8e 4b b1 3c 1a 8a ab bd
       0.12503158 0.37207752 0.021642473 -0.0837595
0001b0 1f a3 25 bc 67 d2 28 be 2f bf 97 3c f0 ab 3b bd
       -0.010109692 -0.16486512 0.01852378 -0.04581827
0001c0 2a c7 bf bd e1 89 3c bd a4 36 c6 be 1a d1 24 be
       -0.093641594 -0.04602993 -0.38713562 -0.16095391
0001d0 bc ba 00 3d 63 bc 50 bd 67 d1 3e be c5 20 08 bd
       0.031428084 -0.05096091 -0.18634568 -0.033234376
0001e0 29 ed ab be f3 50 75 bd 8e 75 be bd 69 4e 2e bc
       -0.33579376 -0.059891652 -0.092997655 -0.010638812
0001f0 a1 cc 99 3d 79 f6 08 3e 87 67 c3 3c 0d bb c2 be
       0.07509733 0.13375272 0.023853077 -0.38033333
000200 53 cd 61 be 97 10 26 3e e2 ee 34 3e 64 ce 30 3e
       -0.22050981 0.16217266 0.17669252 0.17266232
000210 05 6a 05 bc 31 0b fb bd 04 3e 32 bd 77 a6 29 be
       -0.008142953 -0.12257994 -0.043516174 -0.16567408
000220 58 a1 01 3f 7f 05 5b 3e 77 47 bc be 23 fe 62 3e
       0.50636816 0.21388815 -0.36773273 0.22167258
000230 b0 a5 1d bf e6 00 91 3d 31 2d 5f 3c 6c be 46 3d
       -0.61580944 0.070802495 0.013621614 0.048521444
000240 e0 e3 b0 be 6a 87 99 bd 79 2b 8b be 32 1f a9 3e
       -0.34548855 -0.07496531 -0.27181605 0.33031613
000250 64 94 83 3b d5 17 7a 3d 89 59 98 be 19 60 c9 bd
       0.0040154923 0.061057884 -0.2975581 -0.09832782
000260 a5 64 72 be d2 23 2f 3d b0 c1 89 bb 87 6e af be
       -0.23671205 0.04275877 -0.0042039976 -0.34264013
000270 fb fb f7 3d 52 58 83 bd 14 e2 cf bb 99 1d 51 3d
       0.12108608 -0.0641333 -0.0063440893 0.051053617
000280 07 54 26 bf ba cb 87 3d f7 c7 92 bd 66 24 aa be
       -0.64971966 0.06630655 -0.071670465 -0.33230895
000290 f0 da 40 be e9 62 b7 3e e1 b6 bb be c3 f2 f0 be
       -0.18833518 0.3581765 -0.36662963 -0.47060212
0002a0 dd d7 ff bd ac d4 c9 be 3b 30 e9 bd c0 44 96 3e
       -0.124923445 -0.39420068 -0.11386152 0.29349327
0002b0 ac 1b 4e 3d a7 a9 f8 3c 0f b0 17 3e d8 1e c8 bd
       0.05031936 0.030354334 0.14813255 -0.09771508
0002c0 33 bd 4c 3e ab b9 6c bd db 87 a7 3e b0 11 77 bb
       0.19994049 -0.057794254 0.32720837 -0.0037699752
0002d0 4a f6 b0 be 03 9a 27 bd 8f 62 66 3e 84 7d 98 be
       -0.34562904 -0.04091836 0.22498535 -0.2978326
0002e0 b7 66 42 be 58 0a cf b9 06 c0 0e be 00 f3 cd 3d
       -0.18984495 -0.00039489823 -0.13940439 0.10056114
0002f0 15 f1 44 bd 8b 10 6a be f0 c3 89 3d 8b c8 30 3d
       -0.048081476 -0.22857873 0.06726825 0.043160003
000300 69 76 36 3e 01 d8 03 3b df b4 67 3e 7a a7 2e be
       0.17818607 0.0020117762 0.2262759 -0.17056075
000310 fb 1a 5c be be 54 39 be 25 4d a1 3e 72 5a 38 3e
       -0.21494667 -0.18098733 0.3150417 0.18003252
000320 e2 d5 fc bd 1b b7 58 3e 44 06 91 be b1 37 69 3d
       -0.123454824 0.21163599 -0.28325093 0.056937877
000330 cf 3e ac 3d a1 1a ce 3d 5c b9 28 be 81 21 70 3e
       0.08410417 0.10063673 -0.16476959 0.2345028
000340 fb d7 6c 3e 56 56 c5 bd 31 3f 8a 3e f7 c9 ce 3e
       0.23129265 -0.09635608 0.27001336 0.40388462
000350 4e ed a1 3d 02 33 85 be 38 a3 5d 3e 64 2a 44 be
       0.079065904 -0.26015478 0.21644294 -0.19156796
000360 b6 66 95 3e b0 22 d0 3c 7e 68 f5 bd b5 29 80 3e
       0.29179925 0.025407165 -0.11982821 0.2503182
000370 89 65 5e be e8 45 01 3e a2 00 5d 3e 3d f2 57 3e
       -0.2171842 0.12624323 0.21582273 0.210885
000380 c9 04 59 3d 1d 22 3b 3e 3a 2e 16 be 9c 10 9d bd
       0.05298308 0.18274732 -0.14666072 -0.076691836
000390 44 7a 01 bd d7 a0 69 3e 38 d0 7d bd e0 06 cd bd
       -0.031610742 0.22815262 -0.06196615 -0.10011077
0003a0 5c 69 0d be 54 0e ca bd 7c 25 55 3e 69 b0 f6 3d
       -0.13809723 -0.09866014 0.2081508 0.12045366
0003b0 2a 83 6e 3e 61 b2 9c 3c 38 fd 17 3e 2a 53 4d bc
       0.23292223 0.019128026 0.14842689 -0.012532035
0003c0 59 b0 27 be 7e cd 00 be 00 68 63 3e fa e2 af 3e
       -0.16375865 -0.12578389 0.22207642 0.34352857
0003d0 44 d0 e0 3d 4e c1 df 3d bb 28 b5 be be 30 fc 3c
       0.109772235 0.10925542 -0.35382637 0.03078496
0003e0 2a 0a 6a 3e 14 73 13 be 39 dc 68 be 08 eb 28 3e
       0.2285544 -0.14399368 -0.22740258 0.16495907
0003f0 39 79 09 3e 18 cd 38 39 fb 89 95 bd 9f 76 4c bb
       0.13425149 0.00017624011 -0.07301708 -0.0031198633

fc3.bias f4 [7]
000000 e9 fa 8b be 71 b2 cb be f5 78 96 3e 3c 2c c8 3e
       -0.27339867 -0.39784577 0.29389158 0.39096248
000010 60 a4 c0 3d fc 98 3f 3f 61 c0 1b bf
       0.09406352 0.7484281 -0.6084042
